---- START 3701436 ----
> Loading Dataset
> Loading from cache...
> Train-Test Split
> Training Model
> Training config {'epochs': 50, 'patience': 20}
ep-50_bat-1_opt-rmsprop_lr-None_dpt-0.6_dptR-None_dptC-0.4_ls-mean_squared_error_flt-(32, 16, 8)_krn-(7, 5, 3)_pool-(0, 0, 0, 4)_pad-same_pat-20_norm-True_dnsNod-1024_dnsAct-relu_recAct-relu_splt-0.2
_________________________________________________________________
Layer (type)                 Output Shape              Param #   
=================================================================
conv_lst_m2d_1 (ConvLSTM2D)  (None, 72, 140, 140, 32)  207104    
_________________________________________________________________
batch_normalization_1 (Batch (None, 72, 140, 140, 32)  128       
_________________________________________________________________
dropout_1 (Dropout)          (None, 72, 140, 140, 32)  0         
_________________________________________________________________
conv_lst_m2d_2 (ConvLSTM2D)  (None, 72, 140, 140, 16)  76864     
_________________________________________________________________
batch_normalization_2 (Batch (None, 72, 140, 140, 16)  64        
_________________________________________________________________
dropout_2 (Dropout)          (None, 72, 140, 140, 16)  0         
_________________________________________________________________
conv_lst_m2d_3 (ConvLSTM2D)  (None, 140, 140, 8)       6944      
_________________________________________________________________
batch_normalization_3 (Batch (None, 140, 140, 8)       32        
_________________________________________________________________
dropout_3 (Dropout)          (None, 140, 140, 8)       0         
_________________________________________________________________
max_pooling2d_1 (MaxPooling2 (None, 35, 35, 8)         0         
_________________________________________________________________
flatten_1 (Flatten)          (None, 9800)              0         
_________________________________________________________________
batch_normalization_4 (Batch (None, 9800)              39200     
_________________________________________________________________
dense_1 (Dense)              (None, 1024)              10036224  
_________________________________________________________________
batch_normalization_5 (Batch (None, 1024)              4096      
_________________________________________________________________
dropout_4 (Dropout)          (None, 1024)              0         
_________________________________________________________________
dense_2 (Dense)              (None, 512)               524800    
_________________________________________________________________
batch_normalization_6 (Batch (None, 512)               2048      
_________________________________________________________________
dropout_5 (Dropout)          (None, 512)               0         
_________________________________________________________________
dense_3 (Dense)              (None, 256)               131328    
_________________________________________________________________
batch_normalization_7 (Batch (None, 256)               1024      
_________________________________________________________________
dropout_6 (Dropout)          (None, 256)               0         
_________________________________________________________________
dense_4 (Dense)              (None, 1)                 257       
=================================================================
Total params: 11,030,113
Trainable params: 11,006,817
Non-trainable params: 23,296
_________________________________________________________________
None


Train on 13 samples, validate on 4 samples
Epoch 1/50

 1/13 [=>............................] - ETA: 23:05 - loss: 100.0000 - mean_squared_error: 100.0000 - mean_absolute_error: 10.0000
…
---- START 3701446 ----
> Loading Dataset
> Loading from cache...
> Train-Test Split
> Training Model
> Training config {'epochs': 50, 'patience': 20, 'num_filters': (64, 32, 16)}
ep-50_bat-1_opt-rmsprop_lr-None_dpt-0.6_dptR-None_dptC-0.4_ls-mean_squared_error_flt-(64, 32, 16)_krn-(7, 5, 3)_pool-(0, 0, 0, 4)_pad-same_pat-20_norm-True_dnsNod-1024_dnsAct-relu_recAct-relu_splt-0.2
_________________________________________________________________
Layer (type)                 Output Shape              Param #   
=================================================================
conv_lst_m2d_1 (ConvLSTM2D)  (None, 72, 140, 140, 64)  815616    
_________________________________________________________________
batch_normalization_1 (Batch (None, 72, 140, 140, 64)  256       
_________________________________________________________________
dropout_1 (Dropout)          (None, 72, 140, 140, 64)  0         
_________________________________________________________________
conv_lst_m2d_2 (ConvLSTM2D)  (None, 72, 140, 140, 32)  307328    
_________________________________________________________________
batch_normalization_2 (Batch (None, 72, 140, 140, 32)  128       
_________________________________________________________________
dropout_2 (Dropout)          (None, 72, 140, 140, 32)  0         
_________________________________________________________________
conv_lst_m2d_3 (ConvLSTM2D)  (None, 140, 140, 16)      27712     
_________________________________________________________________
batch_normalization_3 (Batch (None, 140, 140, 16)      64        
_________________________________________________________________
dropout_3 (Dropout)          (None, 140, 140, 16)      0         
_________________________________________________________________
max_pooling2d_1 (MaxPooling2 (None, 35, 35, 16)        0         
_________________________________________________________________
flatten_1 (Flatten)          (None, 19600)             0         
_________________________________________________________________
batch_normalization_4 (Batch (None, 19600)             78400     
_________________________________________________________________
dense_1 (Dense)              (None, 1024)              20071424  
_________________________________________________________________
batch_normalization_5 (Batch (None, 1024)              4096      
_________________________________________________________________
dropout_4 (Dropout)          (None, 1024)              0         
_________________________________________________________________
dense_2 (Dense)              (None, 512)               524800    
_________________________________________________________________
batch_normalization_6 (Batch (None, 512)               2048      
_________________________________________________________________
dropout_5 (Dropout)          (None, 512)               0         
_________________________________________________________________
dense_3 (Dense)              (None, 256)               131328    
_________________________________________________________________
batch_normalization_7 (Batch (None, 256)               1024      
_________________________________________________________________
dropout_6 (Dropout)          (None, 256)               0         
_________________________________________________________________
dense_4 (Dense)              (None, 1)                 257       
=================================================================
Total params: 21,964,481
Trainable params: 21,921,473
Non-trainable params: 43,008
_________________________________________________________________
None


Train on 13 samples, validate on 4 samples
Epoch 1/50

 1/13 [=>............................] - ETA: 1:00:45 - loss: 784.0000 - mean_squared_error: 784.0000 - mean_absolute_error: 28.0000
…
> Loading Dataset
> Loading from cache...
> Train-Test Split
> Training Model
> Training config {'epochs': 50, 'patience': 20, 'num_filters': (16, 16, 16), 'kernel_dims': (6, 5, 4)}
ep-50_bat-1_opt-rmsprop_lr-None_dpt-0.6_dptR-None_dptC-0.4_ls-mean_squared_error_flt-(16, 16, 16)_krn-(6, 5, 4)_pool-(0, 0, 0, 4)_pad-same_pat-20_norm-True_dnsNod-1024_dnsAct-relu_recAct-relu_splt-0.2
_________________________________________________________________
Layer (type)                 Output Shape              Param #   
=================================================================
conv_lst_m2d_1 (ConvLSTM2D)  (None, 72, 140, 140, 16)  39232     
_________________________________________________________________
batch_normalization_1 (Batch (None, 72, 140, 140, 16)  64        
_________________________________________________________________
dropout_1 (Dropout)          (None, 72, 140, 140, 16)  0         
_________________________________________________________________
conv_lst_m2d_2 (ConvLSTM2D)  (None, 72, 140, 140, 16)  51264     
_________________________________________________________________
batch_normalization_2 (Batch (None, 72, 140, 140, 16)  64        
_________________________________________________________________
dropout_2 (Dropout)          (None, 72, 140, 140, 16)  0         
_________________________________________________________________
conv_lst_m2d_3 (ConvLSTM2D)  (None, 140, 140, 16)      32832     
_________________________________________________________________
batch_normalization_3 (Batch (None, 140, 140, 16)      64        
_________________________________________________________________
dropout_3 (Dropout)          (None, 140, 140, 16)      0         
_________________________________________________________________
max_pooling2d_1 (MaxPooling2 (None, 35, 35, 16)        0         
_________________________________________________________________
flatten_1 (Flatten)          (None, 19600)             0         
_________________________________________________________________
batch_normalization_4 (Batch (None, 19600)             78400     
_________________________________________________________________
dense_1 (Dense)              (None, 1024)              20071424  
_________________________________________________________________
batch_normalization_5 (Batch (None, 1024)              4096      
_________________________________________________________________
dropout_4 (Dropout)          (None, 1024)              0         
_________________________________________________________________
dense_2 (Dense)              (None, 512)               524800    
_________________________________________________________________
batch_normalization_6 (Batch (None, 512)               2048      
_________________________________________________________________
dropout_5 (Dropout)          (None, 512)               0         
_________________________________________________________________
dense_3 (Dense)              (None, 256)               131328    
_________________________________________________________________
batch_normalization_7 (Batch (None, 256)               1024      
_________________________________________________________________
dropout_6 (Dropout)          (None, 256)               0         
_________________________________________________________________
dense_4 (Dense)              (None, 1)                 257       
=================================================================
Total params: 20,936,897
Trainable params: 20,894,017
Non-trainable params: 42,880
_________________________________________________________________
None


Train on 13 samples, validate on 4 samples
Epoch 1/50

 1/13 [=>............................] - ETA: 21:29 - loss: 9.0000 - mean_squared_error: 9.0000 - mean_absolute_error: 3.0000
…
> Loading Dataset
> Loading from cache...
> Train-Test Split
> Training Model
> Training config {'epochs': 50, 'patience': 20, 'num_filters': (8, 16, 32), 'kernel_dims': (3, 5, 7)}
ep-50_bat-1_opt-rmsprop_lr-None_dpt-0.6_dptR-None_dptC-0.4_ls-mean_squared_error_flt-(8, 16, 32)_krn-(3, 5, 7)_pool-(0, 0, 0, 4)_pad-same_pat-20_norm-True_dnsNod-1024_dnsAct-relu_recAct-relu_splt-0.2
_________________________________________________________________
Layer (type)                 Output Shape              Param #   
=================================================================
conv_lst_m2d_1 (ConvLSTM2D)  (None, 72, 140, 140, 8)   2624      
_________________________________________________________________
batch_normalization_1 (Batch (None, 72, 140, 140, 8)   32        
_________________________________________________________________
dropout_1 (Dropout)          (None, 72, 140, 140, 8)   0         
_________________________________________________________________
conv_lst_m2d_2 (ConvLSTM2D)  (None, 72, 140, 140, 16)  38464     
_________________________________________________________________
batch_normalization_2 (Batch (None, 72, 140, 140, 16)  64        
_________________________________________________________________
dropout_2 (Dropout)          (None, 72, 140, 140, 16)  0         
_________________________________________________________________
conv_lst_m2d_3 (ConvLSTM2D)  (None, 140, 140, 32)      301184    
_________________________________________________________________
batch_normalization_3 (Batch (None, 140, 140, 32)      128       
_________________________________________________________________
dropout_3 (Dropout)          (None, 140, 140, 32)      0         
_________________________________________________________________
max_pooling2d_1 (MaxPooling2 (None, 35, 35, 32)        0         
_________________________________________________________________
flatten_1 (Flatten)          (None, 39200)             0         
_________________________________________________________________
batch_normalization_4 (Batch (None, 39200)             156800    
_________________________________________________________________
dense_1 (Dense)              (None, 1024)              40141824  
_________________________________________________________________
batch_normalization_5 (Batch (None, 1024)              4096      
_________________________________________________________________
dropout_4 (Dropout)          (None, 1024)              0         
_________________________________________________________________
dense_2 (Dense)              (None, 512)               524800    
_________________________________________________________________
batch_normalization_6 (Batch (None, 512)               2048      
_________________________________________________________________
dropout_5 (Dropout)          (None, 512)               0         
_________________________________________________________________
dense_3 (Dense)              (None, 256)               131328    
_________________________________________________________________
batch_normalization_7 (Batch (None, 256)               1024      
_________________________________________________________________
dropout_6 (Dropout)          (None, 256)               0         
_________________________________________________________________
dense_4 (Dense)              (None, 1)                 257       
=================================================================
Total params: 41,304,673
Trainable params: 41,222,577
Non-trainable params: 82,096
_________________________________________________________________
None


Train on 13 samples, validate on 4 samples
Epoch 1/50

 1/13 [=>............................] - ETA: 34:37 - loss: nan - mean_squared_error: nan - mean_absolute_error: nan
…
> Loading Dataset
> Loading from cache...
> Train-Test Split
> Training Model
> Training config {'epochs': 50, 'patience': 20, 'num_filters': (16, 16, 16), 'kernel_dims': (4, 5, 6)}
ep-50_bat-1_opt-rmsprop_lr-None_dpt-0.6_dptR-None_dptC-0.4_ls-mean_squared_error_flt-(16, 16, 16)_krn-(4, 5, 6)_pool-(0, 0, 0, 4)_pad-same_pat-20_norm-True_dnsNod-1024_dnsAct-relu_recAct-relu_splt-0.2
_________________________________________________________________
Layer (type)                 Output Shape              Param #   
=================================================================
conv_lst_m2d_1 (ConvLSTM2D)  (None, 72, 140, 140, 16)  17472     
_________________________________________________________________
batch_normalization_1 (Batch (None, 72, 140, 140, 16)  64        
_________________________________________________________________
dropout_1 (Dropout)          (None, 72, 140, 140, 16)  0         
_________________________________________________________________
conv_lst_m2d_2 (ConvLSTM2D)  (None, 72, 140, 140, 16)  51264     
_________________________________________________________________
batch_normalization_2 (Batch (None, 72, 140, 140, 16)  64        
_________________________________________________________________
dropout_2 (Dropout)          (None, 72, 140, 140, 16)  0         
_________________________________________________________________
conv_lst_m2d_3 (ConvLSTM2D)  (None, 140, 140, 16)      73792     
_________________________________________________________________
batch_normalization_3 (Batch (None, 140, 140, 16)      64        
_________________________________________________________________
dropout_3 (Dropout)          (None, 140, 140, 16)      0         
_________________________________________________________________
max_pooling2d_1 (MaxPooling2 (None, 35, 35, 16)        0         
_________________________________________________________________
flatten_1 (Flatten)          (None, 19600)             0         
_________________________________________________________________
batch_normalization_4 (Batch (None, 19600)             78400     
_________________________________________________________________
dense_1 (Dense)              (None, 1024)              20071424  
_________________________________________________________________
batch_normalization_5 (Batch (None, 1024)              4096      
_________________________________________________________________
dropout_4 (Dropout)          (None, 1024)              0         
_________________________________________________________________
dense_2 (Dense)              (None, 512)               524800    
_________________________________________________________________
batch_normalization_6 (Batch (None, 512)               2048      
_________________________________________________________________
dropout_5 (Dropout)          (None, 512)               0         
_________________________________________________________________
dense_3 (Dense)              (None, 256)               131328    
_________________________________________________________________
batch_normalization_7 (Batch (None, 256)               1024      
_________________________________________________________________
dropout_6 (Dropout)          (None, 256)               0         
_________________________________________________________________
dense_4 (Dense)              (None, 1)                 257       
=================================================================
Total params: 20,956,097
Trainable params: 20,913,217
Non-trainable params: 42,880
_________________________________________________________________
None


Train on 13 samples, validate on 4 samples
Epoch 1/50

 1/13 [=>............................] - ETA: 31:38 - loss: 196.0000 - mean_squared_error: 196.0000 - mean_absolute_error: 14.0000
…
---- START 3701450 ----
> Loading Dataset
> Loading from cache...
> Train-Test Split
> Training Model
> Training config {'epochs': 50, 'patience': 20, 'pool_dims': (2, 2, 2, 0)}
ep-50_bat-1_opt-rmsprop_lr-None_dpt-0.6_dptR-None_dptC-0.4_ls-mean_squared_error_flt-(32, 16, 8)_krn-(7, 5, 3)_pool-(2, 2, 2, 0)_pad-same_pat-20_norm-True_dnsNod-1024_dnsAct-relu_recAct-relu_splt-0.2
_________________________________________________________________
Layer (type)                 Output Shape              Param #   
=================================================================
conv_lst_m2d_1 (ConvLSTM2D)  (None, 72, 140, 140, 32)  207104    
_________________________________________________________________
max_pooling3d_1 (MaxPooling3 (None, 72, 70, 70, 32)    0         
_________________________________________________________________
batch_normalization_1 (Batch (None, 72, 70, 70, 32)    128       
_________________________________________________________________
dropout_1 (Dropout)          (None, 72, 70, 70, 32)    0         
_________________________________________________________________
conv_lst_m2d_2 (ConvLSTM2D)  (None, 72, 70, 70, 16)    76864     
_________________________________________________________________
max_pooling3d_2 (MaxPooling3 (None, 72, 35, 35, 16)    0         
_________________________________________________________________
batch_normalization_2 (Batch (None, 72, 35, 35, 16)    64        
_________________________________________________________________
dropout_2 (Dropout)          (None, 72, 35, 35, 16)    0         
_________________________________________________________________
conv_lst_m2d_3 (ConvLSTM2D)  (None, 35, 35, 8)         6944      
_________________________________________________________________
max_pooling2d_1 (MaxPooling2 (None, 17, 17, 8)         0         
_________________________________________________________________
batch_normalization_3 (Batch (None, 17, 17, 8)         32        
_________________________________________________________________
dropout_3 (Dropout)          (None, 17, 17, 8)         0         
_________________________________________________________________
flatten_1 (Flatten)          (None, 2312)              0         
_________________________________________________________________
batch_normalization_4 (Batch (None, 2312)              9248      
_________________________________________________________________
dense_1 (Dense)              (None, 1024)              2368512   
_________________________________________________________________
batch_normalization_5 (Batch (None, 1024)              4096      
_________________________________________________________________
dropout_4 (Dropout)          (None, 1024)              0         
_________________________________________________________________
dense_2 (Dense)              (None, 512)               524800    
_________________________________________________________________
batch_normalization_6 (Batch (None, 512)               2048      
_________________________________________________________________
dropout_5 (Dropout)          (None, 512)               0         
_________________________________________________________________
dense_3 (Dense)              (None, 256)               131328    
_________________________________________________________________
batch_normalization_7 (Batch (None, 256)               1024      
_________________________________________________________________
dropout_6 (Dropout)          (None, 256)               0         
_________________________________________________________________
dense_4 (Dense)              (None, 1)                 257       
=================================================================
Total params: 3,332,449
Trainable params: 3,324,129
Non-trainable params: 8,320
_________________________________________________________________
None


Train on 13 samples, validate on 4 samples
Epoch 1/50

 1/13 [=>............................] - ETA: 25:45 - loss: nan - mean_squared_error: nan - mean_absolute_error: nan
 2/13 [===>..........................] - ETA: 25:48 - loss: nan - mean_squared_error: nan - mean_absolute_error: nan
…
---- START 3701451 ----
> Loading Dataset
> Loading from cache...
> Train-Test Split
> Training Model
> Training config {'epochs': 50, 'patience': 20, 'pool_dims': (0, 2, 0, 2)}
ep-50_bat-1_opt-rmsprop_lr-None_dpt-0.6_dptR-None_dptC-0.4_ls-mean_squared_error_flt-(32, 16, 8)_krn-(7, 5, 3)_pool-(0, 2, 0, 2)_pad-same_pat-20_norm-True_dnsNod-1024_dnsAct-relu_recAct-relu_splt-0.2
_________________________________________________________________
Layer (type)                 Output Shape              Param #   
=================================================================
conv_lst_m2d_1 (ConvLSTM2D)  (None, 72, 140, 140, 32)  207104    
_________________________________________________________________
batch_normalization_1 (Batch (None, 72, 140, 140, 32)  128       
_________________________________________________________________
dropout_1 (Dropout)          (None, 72, 140, 140, 32)  0         
_________________________________________________________________
conv_lst_m2d_2 (ConvLSTM2D)  (None, 72, 140, 140, 16)  76864     
_________________________________________________________________
max_pooling3d_1 (MaxPooling3 (None, 72, 70, 70, 16)    0         
_________________________________________________________________
batch_normalization_2 (Batch (None, 72, 70, 70, 16)    64        
_________________________________________________________________
dropout_2 (Dropout)          (None, 72, 70, 70, 16)    0         
_________________________________________________________________
conv_lst_m2d_3 (ConvLSTM2D)  (None, 70, 70, 8)         6944      
_________________________________________________________________
batch_normalization_3 (Batch (None, 70, 70, 8)         32        
_________________________________________________________________
dropout_3 (Dropout)          (None, 70, 70, 8)         0         
_________________________________________________________________
max_pooling2d_1 (MaxPooling2 (None, 35, 35, 8)         0         
_________________________________________________________________
flatten_1 (Flatten)          (None, 9800)              0         
_________________________________________________________________
batch_normalization_4 (Batch (None, 9800)              39200     
_________________________________________________________________
dense_1 (Dense)              (None, 1024)              10036224  
_________________________________________________________________
batch_normalization_5 (Batch (None, 1024)              4096      
_________________________________________________________________
dropout_4 (Dropout)          (None, 1024)              0         
_________________________________________________________________
dense_2 (Dense)              (None, 512)               524800    
_________________________________________________________________
batch_normalization_6 (Batch (None, 512)               2048      
_________________________________________________________________
dropout_5 (Dropout)          (None, 512)               0         
_________________________________________________________________
dense_3 (Dense)              (None, 256)               131328    
_________________________________________________________________
batch_normalization_7 (Batch (None, 256)               1024      
_________________________________________________________________
dropout_6 (Dropout)          (None, 256)               0         
_________________________________________________________________
dense_4 (Dense)              (None, 1)                 257       
=================================================================
Total params: 11,030,113
Trainable params: 11,006,817
Non-trainable params: 23,296
_________________________________________________________________
None


Train on 13 samples, validate on 4 samples
Epoch 1/50

 1/13 [=>............................] - ETA: 34:35 - loss: 144.0000 - mean_squared_error: 144.0000 - mean_absolute_error: 12.0000
…
> Loading Dataset
> Loading from cache...
> Train-Test Split
> Training Model
> Training config {'epochs': 50, 'patience': 20, 'pool_dims': (0, 0, 0, 3), 'recurrent_activation': 'tanh'}
ep-50_bat-1_opt-rmsprop_lr-None_dpt-0.6_dptR-None_dptC-0.4_ls-mean_squared_error_flt-(32, 16, 8)_krn-(7, 5, 3)_pool-(0, 0, 0, 3)_pad-same_pat-20_norm-True_dnsNod-1024_dnsAct-relu_recAct-tanh_splt-0.2
_________________________________________________________________
Layer (type)                 Output Shape              Param #   
=================================================================
conv_lst_m2d_1 (ConvLSTM2D)  (None, 72, 140, 140, 32)  207104    
_________________________________________________________________
batch_normalization_1 (Batch (None, 72, 140, 140, 32)  128       
_________________________________________________________________
dropout_1 (Dropout)          (None, 72, 140, 140, 32)  0         
_________________________________________________________________
conv_lst_m2d_2 (ConvLSTM2D)  (None, 72, 140, 140, 16)  76864     
_________________________________________________________________
batch_normalization_2 (Batch (None, 72, 140, 140, 16)  64        
_________________________________________________________________
dropout_2 (Dropout)          (None, 72, 140, 140, 16)  0         
_________________________________________________________________
conv_lst_m2d_3 (ConvLSTM2D)  (None, 140, 140, 8)       6944      
_________________________________________________________________
batch_normalization_3 (Batch (None, 140, 140, 8)       32        
_________________________________________________________________
dropout_3 (Dropout)          (None, 140, 140, 8)       0         
_________________________________________________________________
max_pooling2d_1 (MaxPooling2 (None, 47, 47, 8)         0         
_________________________________________________________________
flatten_1 (Flatten)          (None, 17672)             0         
_________________________________________________________________
batch_normalization_4 (Batch (None, 17672)             70688     
_________________________________________________________________
dense_1 (Dense)              (None, 1024)              18097152  
_________________________________________________________________
batch_normalization_5 (Batch (None, 1024)              4096      
_________________________________________________________________
dropout_4 (Dropout)          (None, 1024)              0         
_________________________________________________________________
dense_2 (Dense)              (None, 512)               524800    
_________________________________________________________________
batch_normalization_6 (Batch (None, 512)               2048      
_________________________________________________________________
dropout_5 (Dropout)          (None, 512)               0         
_________________________________________________________________
dense_3 (Dense)              (None, 256)               131328    
_________________________________________________________________
batch_normalization_7 (Batch (None, 256)               1024      
_________________________________________________________________
dropout_6 (Dropout)          (None, 256)               0         
_________________________________________________________________
dense_4 (Dense)              (None, 1)                 257       
=================================================================
Total params: 19,122,529
Trainable params: 19,083,489
Non-trainable params: 39,040
_________________________________________________________________
None


Train on 13 samples, validate on 4 samples
Epoch 1/50

 1/13 [=>............................] - ETA: 23:45 - loss: 49.0000 - mean_squared_error: 49.0000 - mean_absolute_error: 7.0000
…
---- START 3701445 ----
> Loading Dataset
> Loading from cache...
> Train-Test Split
> Training Model
> Training config {'epochs': 50, 'patience': 20, 'batch_norm': False}
ep-50_bat-1_opt-rmsprop_lr-None_dpt-0.6_dptR-None_dptC-0.4_ls-mean_squared_error_flt-(32, 16, 8)_krn-(7, 5, 3)_pool-(0, 0, 0, 4)_pad-same_pat-20_norm-False_dnsNod-1024_dnsAct-relu_recAct-relu_splt-0.2
_________________________________________________________________
Layer (type)                 Output Shape              Param #   
=================================================================
conv_lst_m2d_1 (ConvLSTM2D)  (None, 72, 140, 140, 32)  207104    
_________________________________________________________________
dropout_1 (Dropout)          (None, 72, 140, 140, 32)  0         
_________________________________________________________________
conv_lst_m2d_2 (ConvLSTM2D)  (None, 72, 140, 140, 16)  76864     
_________________________________________________________________
dropout_2 (Dropout)          (None, 72, 140, 140, 16)  0         
_________________________________________________________________
conv_lst_m2d_3 (ConvLSTM2D)  (None, 140, 140, 8)       6944      
_________________________________________________________________
dropout_3 (Dropout)          (None, 140, 140, 8)       0         
_________________________________________________________________
max_pooling2d_1 (MaxPooling2 (None, 35, 35, 8)         0         
_________________________________________________________________
flatten_1 (Flatten)          (None, 9800)              0         
_________________________________________________________________
dense_1 (Dense)              (None, 1024)              10036224  
_________________________________________________________________
dropout_4 (Dropout)          (None, 1024)              0         
_________________________________________________________________
dense_2 (Dense)              (None, 512)               524800    
_________________________________________________________________
dropout_5 (Dropout)          (None, 512)               0         
_________________________________________________________________
dense_3 (Dense)              (None, 256)               131328    
_________________________________________________________________
dropout_6 (Dropout)          (None, 256)               0         
_________________________________________________________________
dense_4 (Dense)              (None, 1)                 257       
=================================================================
Total params: 10,983,521
Trainable params: 10,983,521
Non-trainable params: 0
_________________________________________________________________
None


Train on 13 samples, validate on 4 samples
Epoch 1/50

 1/13 [=>............................] - ETA: 26:11 - loss: 2922569269248.0000 - mean_squared_error: 2922569269248.0000 - mean_absolute_error: 1709552.3750
…
