…
> Training config {'epochs': 100, 'patience': 20, 'pool_dims': (2, 2, 2, 0), 'dense_activation': 'tanh', 'recurrent_activation': None, 'num_filters': (16, 8, 4), 'kernel_dims': (6, 4, 2)}
ep-100_bat-1_opt-rmsprop_lr-None_dpt-0.6_dptR-None_dptC-0.4_ls-mean_squared_error_flt-(16, 8, 4)_krn-(6, 4, 2)_pool-(2, 2, 2, 0)_pad-same_pat-20_norm-True_dnsNod-1024_dnsAct-tanh_recAct-None_splt-0.1
_________________________________________________________________
Layer (type)                 Output Shape              Param #   
=================================================================
conv_lst_m2d_1 (ConvLSTM2D)  (None, 72, 140, 140, 16)  39232     
_________________________________________________________________
max_pooling3d_1 (MaxPooling3 (None, 72, 70, 70, 16)    0         
_________________________________________________________________
batch_normalization_1 (Batch (None, 72, 70, 70, 16)    64        
_________________________________________________________________
dropout_1 (Dropout)          (None, 72, 70, 70, 16)    0         
_________________________________________________________________
conv_lst_m2d_2 (ConvLSTM2D)  (None, 72, 70, 70, 8)     12320     
_________________________________________________________________
max_pooling3d_2 (MaxPooling3 (None, 72, 35, 35, 8)     0         
_________________________________________________________________
batch_normalization_2 (Batch (None, 72, 35, 35, 8)     32        
_________________________________________________________________
dropout_2 (Dropout)          (None, 72, 35, 35, 8)     0         
_________________________________________________________________
conv_lst_m2d_3 (ConvLSTM2D)  (None, 35, 35, 4)         784       
_________________________________________________________________
max_pooling2d_1 (MaxPooling2 (None, 17, 17, 4)         0         
_________________________________________________________________
batch_normalization_3 (Batch (None, 17, 17, 4)         16        
_________________________________________________________________
dropout_3 (Dropout)          (None, 17, 17, 4)         0         
_________________________________________________________________
flatten_1 (Flatten)          (None, 1156)              0         
_________________________________________________________________
batch_normalization_4 (Batch (None, 1156)              4624      
_________________________________________________________________
dense_1 (Dense)              (None, 1024)              1184768   
_________________________________________________________________
batch_normalization_5 (Batch (None, 1024)              4096      
_________________________________________________________________
dropout_4 (Dropout)          (None, 1024)              0         
_________________________________________________________________
dense_2 (Dense)              (None, 512)               524800    
_________________________________________________________________
batch_normalization_6 (Batch (None, 512)               2048      
_________________________________________________________________
dropout_5 (Dropout)          (None, 512)               0         
_________________________________________________________________
dense_3 (Dense)              (None, 256)               131328    
_________________________________________________________________
batch_normalization_7 (Batch (None, 256)               1024      
_________________________________________________________________
dropout_6 (Dropout)          (None, 256)               0         
_________________________________________________________________
dense_4 (Dense)              (None, 1)                 257       
=================================================================
Total params: 1,905,393
Trainable params: 1,899,441
Non-trainable params: 5,952
_________________________________________________________________
None


Train on 15 samples, validate on 2 samples
Epoch 1/100

 1/15 [=>............................] - ETA: 5:28 - loss: 196.0000 - mean_squared_error: 196.0000 - mean_absolute_error: 14.0000
…
> Loading from cache...
> Train-Test Split
> Training Model
> Training config {'epochs': 100, 'patience': 20, 'pool_dims': (2, 2, 2, 0), 'dense_activation': 'tanh', 'dropout_recurrent': 0.3}
ep-100_bat-1_opt-rmsprop_lr-None_dpt-0.6_dptR-0.3_dptC-0.4_ls-mean_squared_error_flt-(32, 16, 8)_krn-(7, 5, 3)_pool-(2, 2, 2, 0)_pad-same_pat-20_norm-True_dnsNod-1024_dnsAct-tanh_recAct-relu_splt-0.1
_________________________________________________________________
Layer (type)                 Output Shape              Param #   
=================================================================
conv_lst_m2d_1 (ConvLSTM2D)  (None, 72, 140, 140, 32)  207104    
_________________________________________________________________
max_pooling3d_1 (MaxPooling3 (None, 72, 70, 70, 32)    0         
_________________________________________________________________
batch_normalization_1 (Batch (None, 72, 70, 70, 32)    128       
_________________________________________________________________
dropout_1 (Dropout)          (None, 72, 70, 70, 32)    0         
_________________________________________________________________
conv_lst_m2d_2 (ConvLSTM2D)  (None, 72, 70, 70, 16)    76864     
_________________________________________________________________
max_pooling3d_2 (MaxPooling3 (None, 72, 35, 35, 16)    0         
_________________________________________________________________
batch_normalization_2 (Batch (None, 72, 35, 35, 16)    64        
_________________________________________________________________
dropout_2 (Dropout)          (None, 72, 35, 35, 16)    0         
_________________________________________________________________
conv_lst_m2d_3 (ConvLSTM2D)  (None, 35, 35, 8)         6944      
_________________________________________________________________
max_pooling2d_1 (MaxPooling2 (None, 17, 17, 8)         0         
_________________________________________________________________
batch_normalization_3 (Batch (None, 17, 17, 8)         32        
_________________________________________________________________
dropout_3 (Dropout)          (None, 17, 17, 8)         0         
_________________________________________________________________
flatten_1 (Flatten)          (None, 2312)              0         
_________________________________________________________________
batch_normalization_4 (Batch (None, 2312)              9248      
_________________________________________________________________
dense_1 (Dense)              (None, 1024)              2368512   
_________________________________________________________________
batch_normalization_5 (Batch (None, 1024)              4096      
_________________________________________________________________
dropout_4 (Dropout)          (None, 1024)              0         
_________________________________________________________________
dense_2 (Dense)              (None, 512)               524800    
_________________________________________________________________
batch_normalization_6 (Batch (None, 512)               2048      
_________________________________________________________________
dropout_5 (Dropout)          (None, 512)               0         
_________________________________________________________________
dense_3 (Dense)              (None, 256)               131328    
_________________________________________________________________
batch_normalization_7 (Batch (None, 256)               1024      
_________________________________________________________________
dropout_6 (Dropout)          (None, 256)               0         
_________________________________________________________________
dense_4 (Dense)              (None, 1)                 257       
=================================================================
Total params: 3,332,449
Trainable params: 3,324,129
Non-trainable params: 8,320
_________________________________________________________________
None


Train on 15 samples, validate on 2 samples
Epoch 1/100

 1/15 [=>............................] - ETA: 20:22 - loss: 961.0000 - mean_squared_error: 961.0000 - mean_absolute_error: 31.0000
…
> Loading from cache...
> Train-Test Split
> Training Model
> Training config {'epochs': 100, 'patience': 20, 'pool_dims': (2, 2, 2, 0), 'dense_activation': 'tanh', 'dense_nodes': 512}
ep-100_bat-1_opt-rmsprop_lr-None_dpt-0.6_dptR-None_dptC-0.4_ls-mean_squared_error_flt-(32, 16, 8)_krn-(7, 5, 3)_pool-(2, 2, 2, 0)_pad-same_pat-20_norm-True_dnsNod-512_dnsAct-tanh_recAct-relu_splt-0.1
_________________________________________________________________
Layer (type)                 Output Shape              Param #   
=================================================================
conv_lst_m2d_1 (ConvLSTM2D)  (None, 72, 140, 140, 32)  207104    
_________________________________________________________________
max_pooling3d_1 (MaxPooling3 (None, 72, 70, 70, 32)    0         
_________________________________________________________________
batch_normalization_1 (Batch (None, 72, 70, 70, 32)    128       
_________________________________________________________________
dropout_1 (Dropout)          (None, 72, 70, 70, 32)    0         
_________________________________________________________________
conv_lst_m2d_2 (ConvLSTM2D)  (None, 72, 70, 70, 16)    76864     
_________________________________________________________________
max_pooling3d_2 (MaxPooling3 (None, 72, 35, 35, 16)    0         
_________________________________________________________________
batch_normalization_2 (Batch (None, 72, 35, 35, 16)    64        
_________________________________________________________________
dropout_2 (Dropout)          (None, 72, 35, 35, 16)    0         
_________________________________________________________________
conv_lst_m2d_3 (ConvLSTM2D)  (None, 35, 35, 8)         6944      
_________________________________________________________________
max_pooling2d_1 (MaxPooling2 (None, 17, 17, 8)         0         
_________________________________________________________________
batch_normalization_3 (Batch (None, 17, 17, 8)         32        
_________________________________________________________________
dropout_3 (Dropout)          (None, 17, 17, 8)         0         
_________________________________________________________________
flatten_1 (Flatten)          (None, 2312)              0         
_________________________________________________________________
batch_normalization_4 (Batch (None, 2312)              9248      
_________________________________________________________________
dense_1 (Dense)              (None, 512)               1184256   
_________________________________________________________________
batch_normalization_5 (Batch (None, 512)               2048      
_________________________________________________________________
dropout_4 (Dropout)          (None, 512)               0         
_________________________________________________________________
dense_2 (Dense)              (None, 256)               131328    
_________________________________________________________________
batch_normalization_6 (Batch (None, 256)               1024      
_________________________________________________________________
dropout_5 (Dropout)          (None, 256)               0         
_________________________________________________________________
dense_3 (Dense)              (None, 128)               32896     
_________________________________________________________________
batch_normalization_7 (Batch (None, 128)               512       
_________________________________________________________________
dropout_6 (Dropout)          (None, 128)               0         
_________________________________________________________________
dense_4 (Dense)              (None, 1)                 129       
=================================================================
Total params: 1,652,577
Trainable params: 1,646,049
Non-trainable params: 6,528
_________________________________________________________________
None


Train on 15 samples, validate on 2 samples
Epoch 1/100

 1/15 [=>............................] - ETA: 12:46 - loss: 961.0000 - mean_squared_error: 961.0000 - mean_absolute_error: 31.0000
…
