> Loading Dataset
> Loading from cache...
> Train-Test Split
> Training Model
> Training config {'epochs': 100, 'patience': 30}
ep-100_bat-1_opt-rmsprop_lr-None_dpt-0.6_dptR-None_dptC-0.4_ls-mean_squared_error_flt-[32, 16, 8]_krn-[7, 5, 3]_pool-[0, 0, 0, 4]_pad-same_pat-30_norm-True_dnsNod-[1024, 512, 256]_dnsAct-relu_recAct-hard_sigmoidcnvAct-tanh_splt-0.1
_________________________________________________________________
Layer (type)                 Output Shape              Param #   
=================================================================
conv_lst_m2d_1 (ConvLSTM2D)  (None, 72, 140, 140, 32)  207104    
_________________________________________________________________
batch_normalization_1 (Batch (None, 72, 140, 140, 32)  128       
_________________________________________________________________
dropout_1 (Dropout)          (None, 72, 140, 140, 32)  0         
_________________________________________________________________
conv_lst_m2d_2 (ConvLSTM2D)  (None, 72, 140, 140, 16)  76864     
_________________________________________________________________
batch_normalization_2 (Batch (None, 72, 140, 140, 16)  64        
_________________________________________________________________
dropout_2 (Dropout)          (None, 72, 140, 140, 16)  0         
_________________________________________________________________
conv_lst_m2d_3 (ConvLSTM2D)  (None, 140, 140, 8)       6944      
_________________________________________________________________
batch_normalization_3 (Batch (None, 140, 140, 8)       32        
_________________________________________________________________
dropout_3 (Dropout)          (None, 140, 140, 8)       0         
_________________________________________________________________
max_pooling2d_1 (MaxPooling2 (None, 35, 35, 8)         0         
_________________________________________________________________
flatten_1 (Flatten)          (None, 9800)              0         
_________________________________________________________________
batch_normalization_4 (Batch (None, 9800)              39200     
_________________________________________________________________
dense_1 (Dense)              (None, 1024)              10036224  
_________________________________________________________________
batch_normalization_5 (Batch (None, 1024)              4096      
_________________________________________________________________
dropout_4 (Dropout)          (None, 1024)              0         
_________________________________________________________________
dense_2 (Dense)              (None, 512)               524800    
_________________________________________________________________
batch_normalization_6 (Batch (None, 512)               2048      
_________________________________________________________________
dropout_5 (Dropout)          (None, 512)               0         
_________________________________________________________________
dense_3 (Dense)              (None, 256)               131328    
_________________________________________________________________
batch_normalization_7 (Batch (None, 256)               1024      
_________________________________________________________________
dropout_6 (Dropout)          (None, 256)               0         
_________________________________________________________________
dense_4 (Dense)              (None, 1)                 257       
=================================================================
Total params: 11,030,113
Trainable params: 11,006,817
Non-trainable params: 23,296
_________________________________________________________________
None


Train on 15 samples, validate on 2 samples
Epoch 1/100

 1/15 [=>............................] - ETA: 11:40 - loss: 4.0000 - mean_squared_error: 4.0000 - mean_absolute_error: 2.0000
…
> Training Model
> Training config {'epochs': 100, 'patience': 30, 'conv_kernels': [8, 4], 'conv_filters': [32, 16], 'conv_pooling': [3, 3, 0], 'dense_nodes': [512, 256]}
ep-100_bat-1_opt-rmsprop_lr-None_dpt-0.6_dptR-None_dptC-0.4_ls-mean_squared_error_flt-[32, 16]_krn-[8, 4]_pool-[3, 3, 0]_pad-same_pat-30_norm-True_dnsNod-[512, 256]_dnsAct-relu_recAct-hard_sigmoidcnvAct-tanh_splt-0.1
_________________________________________________________________
Layer (type)                 Output Shape              Param #   
=================================================================
conv_lst_m2d_1 (ConvLSTM2D)  (None, 72, 140, 140, 32)  270464    
_________________________________________________________________
max_pooling3d_1 (MaxPooling3 (None, 72, 46, 46, 32)    0         
_________________________________________________________________
batch_normalization_1 (Batch (None, 72, 46, 46, 32)    128       
_________________________________________________________________
dropout_1 (Dropout)          (None, 72, 46, 46, 32)    0         
_________________________________________________________________
conv_lst_m2d_2 (ConvLSTM2D)  (None, 46, 46, 16)        49216     
_________________________________________________________________
max_pooling2d_1 (MaxPooling2 (None, 15, 15, 16)        0         
_________________________________________________________________
batch_normalization_2 (Batch (None, 15, 15, 16)        64        
_________________________________________________________________
dropout_2 (Dropout)          (None, 15, 15, 16)        0         
_________________________________________________________________
flatten_1 (Flatten)          (None, 3600)              0         
_________________________________________________________________
batch_normalization_3 (Batch (None, 3600)              14400     
_________________________________________________________________
dense_1 (Dense)              (None, 512)               1843712   
_________________________________________________________________
batch_normalization_4 (Batch (None, 512)               2048      
_________________________________________________________________
dropout_3 (Dropout)          (None, 512)               0         
_________________________________________________________________
dense_2 (Dense)              (None, 256)               131328    
_________________________________________________________________
batch_normalization_5 (Batch (None, 256)               1024      
_________________________________________________________________
dropout_4 (Dropout)          (None, 256)               0         
_________________________________________________________________
dense_3 (Dense)              (None, 1)                 257       
=================================================================
Total params: 2,312,641
Trainable params: 2,303,809
Non-trainable params: 8,832
_________________________________________________________________
None


Train on 15 samples, validate on 2 samples
Epoch 1/100

 1/15 [=>............................] - ETA: 10:09 - loss: 100.0000 - mean_squared_error: 100.0000 - mean_absolute_error: 10.0000
…
> Training config {'epochs': 100, 'patience': 30, 'conv_activation': 'tanh', 'conv_kernels': [8, 6, 4], 'dense_nodes': [1024, 512, 256, 128]}
ep-100_bat-1_opt-rmsprop_lr-None_dpt-0.6_dptR-None_dptC-0.4_ls-mean_squared_error_flt-[32, 16, 8]_krn-[8, 6, 4]_pool-[0, 0, 0, 4]_pad-same_pat-30_norm-True_dnsNod-[1024, 512, 256, 128]_dnsAct-relu_recAct-hard_sigmoidcnvAct-tanh_splt-0.1
_________________________________________________________________
Layer (type)                 Output Shape              Param #   
=================================================================
conv_lst_m2d_1 (ConvLSTM2D)  (None, 72, 140, 140, 32)  270464    
_________________________________________________________________
batch_normalization_1 (Batch (None, 72, 140, 140, 32)  128       
_________________________________________________________________
dropout_1 (Dropout)          (None, 72, 140, 140, 32)  0         
_________________________________________________________________
conv_lst_m2d_2 (ConvLSTM2D)  (None, 72, 140, 140, 16)  110656    
_________________________________________________________________
batch_normalization_2 (Batch (None, 72, 140, 140, 16)  64        
_________________________________________________________________
dropout_2 (Dropout)          (None, 72, 140, 140, 16)  0         
_________________________________________________________________
conv_lst_m2d_3 (ConvLSTM2D)  (None, 140, 140, 8)       12320     
_________________________________________________________________
batch_normalization_3 (Batch (None, 140, 140, 8)       32        
_________________________________________________________________
dropout_3 (Dropout)          (None, 140, 140, 8)       0         
_________________________________________________________________
max_pooling2d_1 (MaxPooling2 (None, 35, 35, 8)         0         
_________________________________________________________________
flatten_1 (Flatten)          (None, 9800)              0         
_________________________________________________________________
batch_normalization_4 (Batch (None, 9800)              39200     
_________________________________________________________________
dense_1 (Dense)              (None, 1024)              10036224  
_________________________________________________________________
batch_normalization_5 (Batch (None, 1024)              4096      
_________________________________________________________________
dropout_4 (Dropout)          (None, 1024)              0         
_________________________________________________________________
dense_2 (Dense)              (None, 512)               524800    
_________________________________________________________________
batch_normalization_6 (Batch (None, 512)               2048      
_________________________________________________________________
dropout_5 (Dropout)          (None, 512)               0         
_________________________________________________________________
dense_3 (Dense)              (None, 256)               131328    
_________________________________________________________________
batch_normalization_7 (Batch (None, 256)               1024      
_________________________________________________________________
dropout_6 (Dropout)          (None, 256)               0         
_________________________________________________________________
dense_4 (Dense)              (None, 128)               32896     
_________________________________________________________________
batch_normalization_8 (Batch (None, 128)               512       
_________________________________________________________________
dropout_7 (Dropout)          (None, 128)               0         
_________________________________________________________________
dense_5 (Dense)              (None, 1)                 129       
=================================================================
Total params: 11,165,921
Trainable params: 11,142,369
Non-trainable params: 23,552
_________________________________________________________________
None


Train on 15 samples, validate on 2 samples
Epoch 1/100

 1/15 [=>............................] - ETA: 15:25 - loss: 4.0000 - mean_squared_error: 4.0000 - mean_absolute_error: 2.0000
…
