…
> Training config {'epochs': 100, 'patience': 30, 'conv_kernels': [9, 5], 'conv_filters': [16, 8], 'conv_pooling': [3, 3, 0], 'dropout_conv': 0.5, 'dropout_recurrent': 0.4, 'dropout': 0.7}
ep-100_bat-1_opt-rmsprop_lr-None_dpt-0.7_dptR-0.4_dptC-0.5_ls-mean_squared_error_flt-[16, 8]_krn-[9, 5]_pool-[3, 3, 0]_pad-same_pat-30_norm-True_dnsNod-[1024, 512, 256]_dnsAct-relu_recAct-hard_sigmoidcnvAct-tanh_splt-0.1
_________________________________________________________________
Layer (type)                 Output Shape              Param #   
=================================================================
conv_lst_m2d_1 (ConvLSTM2D)  (None, 72, 140, 140, 16)  88192     
_________________________________________________________________
max_pooling3d_1 (MaxPooling3 (None, 72, 46, 46, 16)    0         
_________________________________________________________________
batch_normalization_1 (Batch (None, 72, 46, 46, 16)    64        
_________________________________________________________________
dropout_1 (Dropout)          (None, 72, 46, 46, 16)    0         
_________________________________________________________________
conv_lst_m2d_2 (ConvLSTM2D)  (None, 46, 46, 8)         19232     
_________________________________________________________________
max_pooling2d_1 (MaxPooling2 (None, 15, 15, 8)         0         
_________________________________________________________________
batch_normalization_2 (Batch (None, 15, 15, 8)         32        
_________________________________________________________________
dropout_2 (Dropout)          (None, 15, 15, 8)         0         
_________________________________________________________________
flatten_1 (Flatten)          (None, 1800)              0         
_________________________________________________________________
batch_normalization_3 (Batch (None, 1800)              7200      
_________________________________________________________________
dense_1 (Dense)              (None, 1024)              1844224   
_________________________________________________________________
batch_normalization_4 (Batch (None, 1024)              4096      
_________________________________________________________________
dropout_3 (Dropout)          (None, 1024)              0         
_________________________________________________________________
dense_2 (Dense)              (None, 512)               524800    
_________________________________________________________________
batch_normalization_5 (Batch (None, 512)               2048      
_________________________________________________________________
dropout_4 (Dropout)          (None, 512)               0         
_________________________________________________________________
dense_3 (Dense)              (None, 256)               131328    
_________________________________________________________________
batch_normalization_6 (Batch (None, 256)               1024      
_________________________________________________________________
dropout_5 (Dropout)          (None, 256)               0         
_________________________________________________________________
dense_4 (Dense)              (None, 1)                 257       
=================================================================
Total params: 2,622,497
Trainable params: 2,615,265
Non-trainable params: 7,232
_________________________________________________________________
None


Train on 15 samples, validate on 2 samples
Epoch 1/100

 1/15 [=>............................] - ETA: 6:19 - loss: 4.0000 - mean_squared_error: 4.0000 - mean_absolute_error: 2.0000
…
> Loading Dataset
> Loading from cache...
> Train-Test Split
> Training Model
> Training config {'epochs': 100, 'patience': 30, 'batch_size': 2}
ep-100_bat-2_opt-rmsprop_lr-None_dpt-0.6_dptR-None_dptC-0.4_ls-mean_squared_error_flt-[32, 16, 8]_krn-[7, 5, 3]_pool-[0, 0, 0, 4]_pad-same_pat-30_norm-True_dnsNod-[1024, 512, 256]_dnsAct-relu_recAct-hard_sigmoidcnvAct-tanh_splt-0.1
_________________________________________________________________
Layer (type)                 Output Shape              Param #   
=================================================================
conv_lst_m2d_1 (ConvLSTM2D)  (None, 72, 140, 140, 32)  207104    
_________________________________________________________________
batch_normalization_1 (Batch (None, 72, 140, 140, 32)  128       
_________________________________________________________________
dropout_1 (Dropout)          (None, 72, 140, 140, 32)  0         
_________________________________________________________________
conv_lst_m2d_2 (ConvLSTM2D)  (None, 72, 140, 140, 16)  76864     
_________________________________________________________________
batch_normalization_2 (Batch (None, 72, 140, 140, 16)  64        
_________________________________________________________________
dropout_2 (Dropout)          (None, 72, 140, 140, 16)  0         
_________________________________________________________________
conv_lst_m2d_3 (ConvLSTM2D)  (None, 140, 140, 8)       6944      
_________________________________________________________________
batch_normalization_3 (Batch (None, 140, 140, 8)       32        
_________________________________________________________________
dropout_3 (Dropout)          (None, 140, 140, 8)       0         
_________________________________________________________________
max_pooling2d_1 (MaxPooling2 (None, 35, 35, 8)         0         
_________________________________________________________________
flatten_1 (Flatten)          (None, 9800)              0         
_________________________________________________________________
batch_normalization_4 (Batch (None, 9800)              39200     
_________________________________________________________________
dense_1 (Dense)              (None, 1024)              10036224  
_________________________________________________________________
batch_normalization_5 (Batch (None, 1024)              4096      
_________________________________________________________________
dropout_4 (Dropout)          (None, 1024)              0         
_________________________________________________________________
dense_2 (Dense)              (None, 512)               524800    
_________________________________________________________________
batch_normalization_6 (Batch (None, 512)               2048      
_________________________________________________________________
dropout_5 (Dropout)          (None, 512)               0         
_________________________________________________________________
dense_3 (Dense)              (None, 256)               131328    
_________________________________________________________________
batch_normalization_7 (Batch (None, 256)               1024      
_________________________________________________________________
dropout_6 (Dropout)          (None, 256)               0         
_________________________________________________________________
dense_4 (Dense)              (None, 1)                 257       
=================================================================
Total params: 11,030,113
Trainable params: 11,006,817
Non-trainable params: 23,296
_________________________________________________________________
None


Train on 15 samples, validate on 2 samples
Epoch 1/100

 2/15 [===>..........................] - ETA: 10:23 - loss: 413.4048 - mean_squared_error: 413.4048 - mean_absolute_error: 20.2202
…
