…
> Training Model
> Training config {'epochs': 100, 'patience': 30, 'conv_kernel_regularizer': ('L2', 0.01)}
ep-100_bat-1_opt-rmsprop_lr-None_dpt-0.6_dptR-None_dptC-0.4_ls-mean_squared_error_flt-[32, 16, 8]_krn-[7, 5, 3]_pool-[0, 0, 0, 4]_pad-same_pat-30_norm-True_dnsNod-[1024, 512, 256]_dnsAct-relu_recAct-hard_sigmoidcnvAct-tanh_splt-0.1_dnsReg-None_convReg-('L2', 0.01)_convRecReg-None
_________________________________________________________________
Layer (type)                 Output Shape              Param #   
=================================================================
conv_lst_m2d_1 (ConvLSTM2D)  (None, 72, 140, 140, 32)  207104    
_________________________________________________________________
batch_normalization_1 (Batch (None, 72, 140, 140, 32)  128       
_________________________________________________________________
dropout_1 (Dropout)          (None, 72, 140, 140, 32)  0         
_________________________________________________________________
conv_lst_m2d_2 (ConvLSTM2D)  (None, 72, 140, 140, 16)  76864     
_________________________________________________________________
batch_normalization_2 (Batch (None, 72, 140, 140, 16)  64        
_________________________________________________________________
dropout_2 (Dropout)          (None, 72, 140, 140, 16)  0         
_________________________________________________________________
conv_lst_m2d_3 (ConvLSTM2D)  (None, 140, 140, 8)       6944      
_________________________________________________________________
batch_normalization_3 (Batch (None, 140, 140, 8)       32        
_________________________________________________________________
dropout_3 (Dropout)          (None, 140, 140, 8)       0         
_________________________________________________________________
max_pooling2d_1 (MaxPooling2 (None, 35, 35, 8)         0         
_________________________________________________________________
flatten_1 (Flatten)          (None, 9800)              0         
_________________________________________________________________
batch_normalization_4 (Batch (None, 9800)              39200     
_________________________________________________________________
dense_1 (Dense)              (None, 1024)              10036224  
_________________________________________________________________
batch_normalization_5 (Batch (None, 1024)              4096      
_________________________________________________________________
dropout_4 (Dropout)          (None, 1024)              0         
_________________________________________________________________
dense_2 (Dense)              (None, 512)               524800    
_________________________________________________________________
batch_normalization_6 (Batch (None, 512)               2048      
_________________________________________________________________
dropout_5 (Dropout)          (None, 512)               0         
_________________________________________________________________
dense_3 (Dense)              (None, 256)               131328    
_________________________________________________________________
batch_normalization_7 (Batch (None, 256)               1024      
_________________________________________________________________
dropout_6 (Dropout)          (None, 256)               0         
_________________________________________________________________
dense_4 (Dense)              (None, 1)                 257       
=================================================================
Total params: 11,030,113
Trainable params: 11,006,817
Non-trainable params: 23,296
_________________________________________________________________
None


Train on 15 samples, validate on 2 samples
Epoch 1/100

 1/15 [=>............................] - ETA: 11:58 - loss: 144.6610 - mean_squared_error: 144.0000 - mean_absolute_error: 12.0000
…
