…
    [ 1.00750227e+05  2.04032401e+01  3.00263993e+02 -6.20152158e+00
      3.23043182e-02]
    [ 1.00825135e+05  2.02879293e+01  2.99823188e+02 -5.50399936e+00
      3.04485848e-01]
    [ 1.00860067e+05  1.96909925e+01  2.99547411e+02 -4.71294203e+00
      9.23668495e-01]]]]]
> X_test (240, 61, 49, 49, 5) y_test (240,)
> Training Model
>> Instantiating model
>> Building model
> input_shape: (61, 49, 49, 5)
>> Fitting model
_________________________________________________________________
Layer (type)                 Output Shape              Param #   
=================================================================
main_input (InputLayer)      (None, 61, 49, 49, 5)     0         
_________________________________________________________________
pre-conv-0 (TimeDistributed) (None, 61, 49, 49, 16)    736       
_________________________________________________________________
pre-conv-norm-0 (BatchNormal (None, 61, 49, 49, 16)    64        
_________________________________________________________________
pre-conv-1 (TimeDistributed) (None, 61, 49, 49, 16)    2320      
_________________________________________________________________
pre-conv-norm-1 (BatchNormal (None, 61, 49, 49, 16)    64        
_________________________________________________________________
pre-lstm-pool (TimeDistribut (None, 61, 25, 25, 16)    0         
_________________________________________________________________
lstm-0 (ConvLSTM2D)          (None, 61, 25, 25, 16)    18496     
_________________________________________________________________
lstm-0-norm (BatchNormalizat (None, 61, 25, 25, 16)    64        
_________________________________________________________________
lstm-1 (ConvLSTM2D)          (None, 61, 25, 25, 16)    18496     
_________________________________________________________________
lstm-1-norm (BatchNormalizat (None, 61, 25, 25, 16)    64        
_________________________________________________________________
lstm-2 (ConvLSTM2D)          (None, 25, 25, 16)        18496     
_________________________________________________________________
lstm-2-norm (BatchNormalizat (None, 25, 25, 16)        64        
_________________________________________________________________
lstm-flatten (Flatten)       (None, 10000)             0         
_________________________________________________________________
dense-0 (Dense)              (None, 1024)              10241024  
_________________________________________________________________
dense-norm-0 (BatchNormaliza (None, 1024)              4096      
_________________________________________________________________
dense-dropout-0 (Dropout)    (None, 1024)              0         
_________________________________________________________________
dense-1 (Dense)              (None, 1024)              1049600   
_________________________________________________________________
dense-norm-1 (BatchNormaliza (None, 1024)              4096      
_________________________________________________________________
dense-dropout-1 (Dropout)    (None, 1024)              0         
_________________________________________________________________
main_output (Dense)          (None, 1)                 1025      
=================================================================
Total params: 11,358,705
Trainable params: 11,354,449
Non-trainable params: 4,256
_________________________________________________________________
None


Train on 744 samples, validate on 186 samples
Epoch 1/500

 30/744 [>.............................] - ETA: 1:58 - loss: 279.9386 - mean_squared_error: 277.3741 - mean_absolute_error: 13.6601
…
