…
Processed 2016 (22, 61, 49, 49, 5)
Processed 2017 (22, 61, 49, 49, 5)
[[  … > X_test (110, 61, 49, 49, 5) y_test (110,)
Processed 2010 (22, 61, 49, 49, 5)
Processed 2011 (22, 61, 49, 49, 5)
Processed 2012 (22, 61, 49, 49, 5)
(66, 61, 49, 49, 5)
> X_dev (66, 61, 49, 49, 5) y_dev (66,)
> Training Model
>> Instantiating model
>> Building model
> input_shape: (61, 49, 49, 5)
>> Fitting model
_________________________________________________________________
Layer (type)                 Output Shape              Param #   
=================================================================
main_input (InputLayer)      (None, 61, 49, 49, 5)     0         
_________________________________________________________________
pre-conv-0 (TimeDistributed) (None, 61, 49, 49, 16)    736       
_________________________________________________________________
pre-conv-0-dropout (TimeDist (None, 61, 49, 49, 16)    0         
_________________________________________________________________
pre-conv-norm-0 (BatchNormal (None, 61, 49, 49, 16)    64        
_________________________________________________________________
pre-conv-1 (TimeDistributed) (None, 61, 49, 49, 16)    2320      
_________________________________________________________________
pre-conv-1-dropout (TimeDist (None, 61, 49, 49, 16)    0         
_________________________________________________________________
pre-conv-norm-1 (BatchNormal (None, 61, 49, 49, 16)    64        
_________________________________________________________________
lstm-0 (ConvLSTM2D)          (None, 61, 49, 49, 16)    18496     
_________________________________________________________________
lstm-0-norm (BatchNormalizat (None, 61, 49, 49, 16)    64        
_________________________________________________________________
lstm-1 (ConvLSTM2D)          (None, 61, 49, 49, 16)    18496     
_________________________________________________________________
lstm-1-norm (BatchNormalizat (None, 61, 49, 49, 16)    64        
_________________________________________________________________
lstm-2 (ConvLSTM2D)          (None, 49, 49, 16)        18496     
_________________________________________________________________
lstm-2-norm (BatchNormalizat (None, 49, 49, 16)        64        
_________________________________________________________________
lstm-flatten (Flatten)       (None, 38416)             0         
_________________________________________________________________
dense-0 (Dense)              (None, 1024)              39339008  
_________________________________________________________________
dense-norm-0 (BatchNormaliza (None, 1024)              4096      
_________________________________________________________________
dense-dropout-0 (Dropout)    (None, 1024)              0         
_________________________________________________________________
dense-1 (Dense)              (None, 1024)              1049600   
_________________________________________________________________
dense-norm-1 (BatchNormaliza (None, 1024)              4096      
_________________________________________________________________
dense-dropout-1 (Dropout)    (None, 1024)              0         
_________________________________________________________________
dense-2 (Dense)              (None, 1024)              1049600   
_________________________________________________________________
dense-norm-2 (BatchNormaliza (None, 1024)              4096      
_________________________________________________________________
dense-dropout-2 (Dropout)    (None, 1024)              0         
_________________________________________________________________
main_output (Dense)          (None, 1)                 1025      
=================================================================
Total params: 41,510,385
Trainable params: 41,504,081
Non-trainable params: 6,304
_________________________________________________________________
None


Train on 682 samples, validate on 66 samples
Epoch 1/150
> Loading Dataset
> Loading from cache...
> Loading from cache...
> Loading from cache...
> Loading from cache...
> Loading from cache...
…
Processed 2016 (22, 61, 49, 49, 5)
Processed 2017 (22, 61, 49, 49, 5)
[[  … > X_test (110, 61, 49, 49, 5) y_test (110,)
Processed 2010 (22, 61, 49, 49, 5)
Processed 2011 (22, 61, 49, 49, 5)
Processed 2012 (22, 61, 49, 49, 5)
(66, 61, 49, 49, 5)
> X_dev (66, 61, 49, 49, 5) y_dev (66,)
> Training Model
>> Instantiating model
>> Building model
> input_shape: (61, 49, 49, 5)
>> Fitting model
_________________________________________________________________
Layer (type)                 Output Shape              Param #   
=================================================================
main_input (InputLayer)      (None, 61, 49, 49, 5)     0         
_________________________________________________________________
pre-conv-0 (TimeDistributed) (None, 61, 49, 49, 16)    736       
_________________________________________________________________
pre-conv-0-dropout (TimeDist (None, 61, 49, 49, 16)    0         
_________________________________________________________________
pre-conv-norm-0 (BatchNormal (None, 61, 49, 49, 16)    64        
_________________________________________________________________
pre-conv-1 (TimeDistributed) (None, 61, 49, 49, 16)    2320      
_________________________________________________________________
pre-conv-1-dropout (TimeDist (None, 61, 49, 49, 16)    0         
_________________________________________________________________
pre-conv-norm-1 (BatchNormal (None, 61, 49, 49, 16)    64        
_________________________________________________________________
pre-lstm-pool (TimeDistribut (None, 61, 25, 25, 16)    0         
_________________________________________________________________
lstm-0 (ConvLSTM2D)          (None, 61, 25, 25, 16)    18496     
_________________________________________________________________
lstm-0-norm (BatchNormalizat (None, 61, 25, 25, 16)    64        
_________________________________________________________________
lstm-1 (ConvLSTM2D)          (None, 61, 25, 25, 16)    18496     
_________________________________________________________________
lstm-1-norm (BatchNormalizat (None, 61, 25, 25, 16)    64        
_________________________________________________________________
lstm-2 (ConvLSTM2D)          (None, 25, 25, 16)        18496     
_________________________________________________________________
lstm-2-norm (BatchNormalizat (None, 25, 25, 16)        64        
_________________________________________________________________
lstm-flatten (Flatten)       (None, 10000)             0         
_________________________________________________________________
dense-0 (Dense)              (None, 1024)              10241024  
_________________________________________________________________
dense-norm-0 (BatchNormaliza (None, 1024)              4096      
_________________________________________________________________
dense-dropout-0 (Dropout)    (None, 1024)              0         
_________________________________________________________________
dense-1 (Dense)              (None, 1024)              1049600   
_________________________________________________________________
dense-norm-1 (BatchNormaliza (None, 1024)              4096      
_________________________________________________________________
dense-dropout-1 (Dropout)    (None, 1024)              0         
_________________________________________________________________
dense-2 (Dense)              (None, 1024)              1049600   
_________________________________________________________________
dense-norm-2 (BatchNormaliza (None, 1024)              4096      
_________________________________________________________________
dense-dropout-2 (Dropout)    (None, 1024)              0         
_________________________________________________________________
main_output (Dense)          (None, 1)                 1025      
=================================================================
Total params: 12,412,401
Trainable params: 12,406,097
Non-trainable params: 6,304
_________________________________________________________________
None


Train on 682 samples, validate on 66 samples
Epoch 1/150

 22/682 [..............................] - ETA: 2:23 - loss: 212.2906 - mean_squared_error: 208.1159 - mean_absolute_error: 13.0074
…
