…
    [ 1.01272000e+05  2.14928681e+01  3.02296659e+02 -2.38152314e+00
      1.59259606e+00]]]]]
> X_test (5, 61, 49, 49, 5) y_test (5,)
Processed 2010 (30, 61, 49, 49, 5)
Processed 2011 (30, 61, 49, 49, 5)
Processed 2012 (30, 61, 49, 49, 5)
(90, 61, 49, 49, 5)
> X_dev (90, 61, 49, 49, 5) y_dev (90,)
> Training Model
>> Instantiating model
>> Building model
> input_shape: (61, 49, 49, 5)
>> Fitting model
_________________________________________________________________
Layer (type)                 Output Shape              Param #   
=================================================================
main_input (InputLayer)      (None, 61, 49, 49, 5)     0         
_________________________________________________________________
pre-conv-0 (TimeDistributed) (None, 61, 49, 49, 20)    920       
_________________________________________________________________
pre-conv-0-dropout (TimeDist (None, 61, 49, 49, 20)    0         
_________________________________________________________________
pre-conv-norm-0 (BatchNormal (None, 61, 49, 49, 20)    80        
_________________________________________________________________
pre-conv-1 (TimeDistributed) (None, 61, 49, 49, 20)    3620      
_________________________________________________________________
pre-conv-1-dropout (TimeDist (None, 61, 49, 49, 20)    0         
_________________________________________________________________
pre-conv-norm-1 (BatchNormal (None, 61, 49, 49, 20)    80        
_________________________________________________________________
pre-lstm-pool (TimeDistribut (None, 61, 25, 25, 20)    0         
_________________________________________________________________
lstm-0 (ConvLSTM2D)          (None, 61, 25, 25, 20)    28880     
_________________________________________________________________
lstm-0-norm (BatchNormalizat (None, 61, 25, 25, 20)    80        
_________________________________________________________________
lstm-1 (ConvLSTM2D)          (None, 61, 25, 25, 20)    28880     
_________________________________________________________________
lstm-1-norm (BatchNormalizat (None, 61, 25, 25, 20)    80        
_________________________________________________________________
lstm-2 (ConvLSTM2D)          (None, 25, 25, 20)        28880     
_________________________________________________________________
lstm-2-norm (BatchNormalizat (None, 25, 25, 20)        80        
_________________________________________________________________
lstm-flatten (Flatten)       (None, 12500)             0         
_________________________________________________________________
dense-0 (Dense)              (None, 1024)              12801024  
_________________________________________________________________
dense-norm-0 (BatchNormaliza (None, 1024)              4096      
_________________________________________________________________
dense-dropout-0 (Dropout)    (None, 1024)              0         
_________________________________________________________________
dense-1 (Dense)              (None, 1024)              1049600   
_________________________________________________________________
dense-norm-1 (BatchNormaliza (None, 1024)              4096      
_________________________________________________________________
dense-dropout-1 (Dropout)    (None, 1024)              0         
_________________________________________________________________
dense-2 (Dense)              (None, 1024)              1049600   
_________________________________________________________________
dense-norm-2 (BatchNormaliza (None, 1024)              4096      
_________________________________________________________________
dense-dropout-2 (Dropout)    (None, 1024)              0         
_________________________________________________________________
main_output (Dense)          (None, 1)                 1025      
=================================================================
Total params: 15,005,117
Trainable params: 14,998,773
Non-trainable params: 6,344
_________________________________________________________________
None


Train on 930 samples, validate on 90 samples
Epoch 1/300

 15/930 [..............................] - ETA: 6:38 - loss: 293.2242 - mean_squared_error: 288.9466 - mean_absolute_error: 14.3791
…
