…
Processed 2016 (22, 61, 49, 49, 5)
Processed 2017 (22, 61, 49, 49, 5)
[[  … > X_test (110, 61, 49, 49, 5) y_test (110,)
Processed 2010 (22, 61, 49, 49, 5)
Processed 2011 (22, 61, 49, 49, 5)
Processed 2012 (22, 61, 49, 49, 5)
(66, 61, 49, 49, 5)
> X_dev (66, 61, 49, 49, 5) y_dev (66,)
> Training Model
>> Instantiating model
>> Building model
> input_shape: (61, 49, 49, 5)
>> Fitting model
_________________________________________________________________
Layer (type)                 Output Shape              Param #   
=================================================================
main_input (InputLayer)      (None, 61, 49, 49, 5)     0         
_________________________________________________________________
pre-conv-0 (TimeDistributed) (None, 61, 49, 49, 16)    736       
_________________________________________________________________
pre-conv-0-dropout (TimeDist (None, 61, 49, 49, 16)    0         
_________________________________________________________________
pre-conv-norm-0 (BatchNormal (None, 61, 49, 49, 16)    64        
_________________________________________________________________
pre-conv-1 (TimeDistributed) (None, 61, 49, 49, 16)    2320      
_________________________________________________________________
pre-conv-1-dropout (TimeDist (None, 61, 49, 49, 16)    0         
_________________________________________________________________
pre-conv-norm-1 (BatchNormal (None, 61, 49, 49, 16)    64        
_________________________________________________________________
pre-lstm-pool (TimeDistribut (None, 61, 25, 25, 16)    0         
_________________________________________________________________
lstm-0 (ConvLSTM2D)          (None, 61, 25, 25, 32)    55424     
_________________________________________________________________
lstm-0-norm (BatchNormalizat (None, 61, 25, 25, 32)    128       
_________________________________________________________________
lstm-1 (ConvLSTM2D)          (None, 61, 25, 25, 32)    73856     
_________________________________________________________________
lstm-1-norm (BatchNormalizat (None, 61, 25, 25, 32)    128       
_________________________________________________________________
lstm-2 (ConvLSTM2D)          (None, 61, 25, 25, 32)    73856     
_________________________________________________________________
lstm-2-norm (BatchNormalizat (None, 61, 25, 25, 32)    128       
_________________________________________________________________
lstm-3 (ConvLSTM2D)          (None, 25, 25, 32)        73856     
_________________________________________________________________
lstm-3-norm (BatchNormalizat (None, 25, 25, 32)        128       
_________________________________________________________________
lstm-flatten (Flatten)       (None, 20000)             0         
_________________________________________________________________
dense-0 (Dense)              (None, 1024)              20481024  
_________________________________________________________________
dense-norm-0 (BatchNormaliza (None, 1024)              4096      
_________________________________________________________________
dense-dropout-0 (Dropout)    (None, 1024)              0         
_________________________________________________________________
dense-1 (Dense)              (None, 1024)              1049600   
_________________________________________________________________
dense-norm-1 (BatchNormaliza (None, 1024)              4096      
_________________________________________________________________
dense-dropout-1 (Dropout)    (None, 1024)              0         
_________________________________________________________________
dense-2 (Dense)              (None, 1024)              1049600   
_________________________________________________________________
dense-norm-2 (BatchNormaliza (None, 1024)              4096      
_________________________________________________________________
dense-dropout-2 (Dropout)    (None, 1024)              0         
_________________________________________________________________
main_output (Dense)          (None, 1)                 1025      
=================================================================
Total params: 22,874,225
Trainable params: 22,867,761
Non-trainable params: 6,464
_________________________________________________________________
None


Train on 682 samples, validate on 66 samples
Epoch 1/200

 22/682 [..............................] - ETA: 4:21 - loss: 115.8203 - mean_squared_error: 111.1298 - mean_absolute_error: 8.9856
…
Processed 2016 (22, 61, 49, 49, 5)
Processed 2017 (22, 61, 49, 49, 5)
[[  … > X_test (110, 61, 49, 49, 5) y_test (110,)
Processed 2010 (22, 61, 49, 49, 5)
Processed 2011 (22, 61, 49, 49, 5)
Processed 2012 (22, 61, 49, 49, 5)
(66, 61, 49, 49, 5)
> X_dev (66, 61, 49, 49, 5) y_dev (66,)
> Training Model
>> Instantiating model
>> Building model
> input_shape: (61, 49, 49, 5)
>> Fitting model
_________________________________________________________________
Layer (type)                 Output Shape              Param #   
=================================================================
main_input (InputLayer)      (None, 61, 49, 49, 5)     0         
_________________________________________________________________
pre-conv-0 (TimeDistributed) (None, 61, 49, 49, 32)    1472      
_________________________________________________________________
pre-conv-0-dropout (TimeDist (None, 61, 49, 49, 32)    0         
_________________________________________________________________
pre-conv-norm-0 (BatchNormal (None, 61, 49, 49, 32)    128       
_________________________________________________________________
pre-conv-1 (TimeDistributed) (None, 61, 49, 49, 32)    9248      
_________________________________________________________________
pre-conv-1-dropout (TimeDist (None, 61, 49, 49, 32)    0         
_________________________________________________________________
pre-conv-norm-1 (BatchNormal (None, 61, 49, 49, 32)    128       
_________________________________________________________________
pre-lstm-pool (TimeDistribut (None, 61, 25, 25, 32)    0         
_________________________________________________________________
lstm-0 (ConvLSTM2D)          (None, 61, 25, 25, 32)    73856     
_________________________________________________________________
lstm-0-norm (BatchNormalizat (None, 61, 25, 25, 32)    128       
_________________________________________________________________
lstm-1 (ConvLSTM2D)          (None, 61, 25, 25, 32)    73856     
_________________________________________________________________
lstm-1-norm (BatchNormalizat (None, 61, 25, 25, 32)    128       
_________________________________________________________________
lstm-2 (ConvLSTM2D)          (None, 61, 25, 25, 32)    73856     
_________________________________________________________________
lstm-2-norm (BatchNormalizat (None, 61, 25, 25, 32)    128       
_________________________________________________________________
lstm-3 (ConvLSTM2D)          (None, 25, 25, 32)        73856     
_________________________________________________________________
lstm-3-norm (BatchNormalizat (None, 25, 25, 32)        128       
_________________________________________________________________
lstm-flatten (Flatten)       (None, 20000)             0         
_________________________________________________________________
dense-0 (Dense)              (None, 1024)              20481024  
_________________________________________________________________
dense-norm-0 (BatchNormaliza (None, 1024)              4096      
_________________________________________________________________
dense-dropout-0 (Dropout)    (None, 1024)              0         
_________________________________________________________________
dense-1 (Dense)              (None, 1024)              1049600   
_________________________________________________________________
dense-norm-1 (BatchNormaliza (None, 1024)              4096      
_________________________________________________________________
dense-dropout-1 (Dropout)    (None, 1024)              0         
_________________________________________________________________
dense-2 (Dense)              (None, 1024)              1049600   
_________________________________________________________________
dense-norm-2 (BatchNormaliza (None, 1024)              4096      
_________________________________________________________________
dense-dropout-2 (Dropout)    (None, 1024)              0         
_________________________________________________________________
main_output (Dense)          (None, 1)                 1025      
=================================================================
Total params: 22,900,449
Trainable params: 22,893,921
Non-trainable params: 6,528
_________________________________________________________________
None


Train on 682 samples, validate on 66 samples
Epoch 1/200

 22/682 [..............................] - ETA: 4:41 - loss: 153.1474 - mean_squared_error: 148.4356 - mean_absolute_error: 9.7894
…
