…
    [ … ...
    [ … ...

   [[ … ...
    [ … ...
    [ … ...
    [ … > X_test (5, 61, 49, 49, 6) y_test (5,)
Processed 2010 (30, 41, 49, 49, 6)
Processed 2011 (30, 41, 49, 49, 6)
Processed 2012 (30, 41, 49, 49, 6)
(90, 41, 49, 49, 6)
> X_dev (90, 41, 49, 49, 6) y_dev (90,)
> Training Model
>> Instantiating model
>> Building model
> input_shape: (41, 49, 49, 6)
>> Fitting model
_________________________________________________________________
Layer (type)                 Output Shape              Param #   
=================================================================
main_input (InputLayer)      (None, 41, 49, 49, 6)     0         
_________________________________________________________________
pre-conv-0 (TimeDistributed) (None, 41, 49, 49, 16)    880       
_________________________________________________________________
pre-conv-0-dropout (TimeDist (None, 41, 49, 49, 16)    0         
_________________________________________________________________
pre-conv-norm-0 (BatchNormal (None, 41, 49, 49, 16)    64        
_________________________________________________________________
pre-conv-1 (TimeDistributed) (None, 41, 49, 49, 16)    2320      
_________________________________________________________________
pre-conv-1-dropout (TimeDist (None, 41, 49, 49, 16)    0         
_________________________________________________________________
pre-conv-norm-1 (BatchNormal (None, 41, 49, 49, 16)    64        
_________________________________________________________________
pre-lstm-pool (TimeDistribut (None, 41, 25, 25, 16)    0         
_________________________________________________________________
lstm-0 (ConvLSTM2D)          (None, 41, 25, 25, 32)    55424     
_________________________________________________________________
lstm-0-norm (BatchNormalizat (None, 41, 25, 25, 32)    128       
_________________________________________________________________
lstm-1 (ConvLSTM2D)          (None, 41, 25, 25, 32)    73856     
_________________________________________________________________
lstm-1-norm (BatchNormalizat (None, 41, 25, 25, 32)    128       
_________________________________________________________________
lstm-2 (ConvLSTM2D)          (None, 25, 25, 32)        73856     
_________________________________________________________________
lstm-2-norm (BatchNormalizat (None, 25, 25, 32)        128       
_________________________________________________________________
lstm-flatten (Flatten)       (None, 20000)             0         
_________________________________________________________________
dense-0 (Dense)              (None, 2048)              40962048  
_________________________________________________________________
dense-norm-0 (BatchNormaliza (None, 2048)              8192      
_________________________________________________________________
dense-dropout-0 (Dropout)    (None, 2048)              0         
_________________________________________________________________
dense-1 (Dense)              (None, 1024)              2098176   
_________________________________________________________________
dense-norm-1 (BatchNormaliza (None, 1024)              4096      
_________________________________________________________________
dense-dropout-1 (Dropout)    (None, 1024)              0         
_________________________________________________________________
dense-2 (Dense)              (None, 512)               524800    
_________________________________________________________________
dense-norm-2 (BatchNormaliza (None, 512)               2048      
_________________________________________________________________
dense-dropout-2 (Dropout)    (None, 512)               0         
_________________________________________________________________
main_output (Dense)          (None, 1)                 513       
=================================================================
Total params: 43,806,721
Trainable params: 43,799,297
Non-trainable params: 7,424
_________________________________________________________________
None


Train on 930 samples, validate on 90 samples
Epoch 1/300

 30/930 [..............................] - ETA: 3:17 - loss: 340.3335 - mean_squared_error: 334.0534 - mean_absolute_error: 16.2055
…
