…
    [1.01226719e+05 2.07381070e+01 3.02783466e+02]
    [1.01272000e+05 2.14928681e+01 3.02296659e+02]]]]]
> X_test (5, 61, 49, 49, 3) y_test (5,)
Processed 2010 (25, 61, 49, 49, 3)
Processed 2011 (25, 61, 49, 49, 3)
Processed 2012 (25, 61, 49, 49, 3)
(75, 61, 49, 49, 3)
> X_dev (75, 61, 49, 49, 3) y_dev (75,)
> Training Model
>> Instantiating model
>> Building model
> input_shape: (61, 49, 49, 3)
>> Fitting model
_________________________________________________________________
Layer (type)                 Output Shape              Param #   
=================================================================
main_input (InputLayer)      (None, 61, 49, 49, 3)     0         
_________________________________________________________________
pre-conv-0 (TimeDistributed) (None, 61, 49, 49, 10)    280       
_________________________________________________________________
pre-conv-norm-0 (BatchNormal (None, 61, 49, 49, 10)    40        
_________________________________________________________________
pre-conv-1 (TimeDistributed) (None, 61, 49, 49, 10)    910       
_________________________________________________________________
pre-conv-1-dropout (TimeDist (None, 61, 49, 49, 10)    0         
_________________________________________________________________
pre-conv-norm-1 (BatchNormal (None, 61, 49, 49, 10)    40        
_________________________________________________________________
pre-lstm-pool (TimeDistribut (None, 61, 25, 25, 10)    0         
_________________________________________________________________
lstm-0 (ConvLSTM2D)          (None, 61, 25, 25, 20)    21680     
_________________________________________________________________
lstm-0-norm (BatchNormalizat (None, 61, 25, 25, 20)    80        
_________________________________________________________________
lstm-1 (ConvLSTM2D)          (None, 25, 25, 20)        28880     
_________________________________________________________________
lstm-1-norm (BatchNormalizat (None, 25, 25, 20)        80        
_________________________________________________________________
lstm-flatten (Flatten)       (None, 12500)             0         
_________________________________________________________________
dense-0 (Dense)              (None, 1024)              12801024  
_________________________________________________________________
dense-norm-0 (BatchNormaliza (None, 1024)              4096      
_________________________________________________________________
dense-dropout-0 (Dropout)    (None, 1024)              0         
_________________________________________________________________
dense-1 (Dense)              (None, 1024)              1049600   
_________________________________________________________________
dense-norm-1 (BatchNormaliza (None, 1024)              4096      
_________________________________________________________________
dense-dropout-1 (Dropout)    (None, 1024)              0         
_________________________________________________________________
main_output (Dense)          (None, 1)                 1025      
=================================================================
Total params: 13,911,831
Trainable params: 13,907,615
Non-trainable params: 4,216
_________________________________________________________________
None


Train on 775 samples, validate on 75 samples
Epoch 1/500

 50/775 [>.............................] - ETA: 1:12 - loss: 341.9009 - mean_squared_error: 340.0226 - mean_absolute_error: 17.1657
…
