…
    [1.00793259e+05 2.24042887e+01 2.99242670e+02]]]]]
> X_test (232, 61, 49, 49, 3) y_test (232,)
Processed 2006 (29, 61, 49, 49, 3)
Processed 2007 (29, 61, 49, 49, 3)
Processed 2008 (29, 61, 49, 49, 3)
Processed 2009 (29, 61, 49, 49, 3)
(116, 61, 49, 49, 3)
> X_dev (116, 61, 49, 49, 3) y_dev (116,)
> Training Model
>> Instantiating model
>> Building model
> input_shape: (61, 49, 49, 3)
>> Fitting model
_________________________________________________________________
Layer (type)                 Output Shape              Param #   
=================================================================
main_input (InputLayer)      (None, 61, 49, 49, 3)     0         
_________________________________________________________________
pre-conv-0 (TimeDistributed) (None, 61, 49, 49, 16)    448       
_________________________________________________________________
pre-conv-0-dropout (TimeDist (None, 61, 49, 49, 16)    0         
_________________________________________________________________
pre-conv-norm-0 (BatchNormal (None, 61, 49, 49, 16)    64        
_________________________________________________________________
pre-conv-1 (TimeDistributed) (None, 61, 49, 49, 16)    2320      
_________________________________________________________________
pre-conv-1-dropout (TimeDist (None, 61, 49, 49, 16)    0         
_________________________________________________________________
pre-conv-norm-1 (BatchNormal (None, 61, 49, 49, 16)    64        
_________________________________________________________________
pre-lstm-pool (TimeDistribut (None, 61, 25, 25, 16)    0         
_________________________________________________________________
lstm-0 (ConvLSTM2D)          (None, 61, 25, 25, 16)    18496     
_________________________________________________________________
lstm-0-norm (BatchNormalizat (None, 61, 25, 25, 16)    64        
_________________________________________________________________
lstm-1 (ConvLSTM2D)          (None, 25, 25, 16)        18496     
_________________________________________________________________
lstm-1-norm (BatchNormalizat (None, 25, 25, 16)        64        
_________________________________________________________________
lstm-flatten (Flatten)       (None, 10000)             0         
_________________________________________________________________
dense-0 (Dense)              (None, 1024)              10241024  
_________________________________________________________________
dense-norm-0 (BatchNormaliza (None, 1024)              4096      
_________________________________________________________________
dense-dropout-0 (Dropout)    (None, 1024)              0         
_________________________________________________________________
dense-1 (Dense)              (None, 1024)              1049600   
_________________________________________________________________
dense-norm-1 (BatchNormaliza (None, 1024)              4096      
_________________________________________________________________
dense-dropout-1 (Dropout)    (None, 1024)              0         
_________________________________________________________________
main_output (Dense)          (None, 1)                 1025      
=================================================================
Total params: 11,339,857
Trainable params: 11,335,633
Non-trainable params: 4,224
_________________________________________________________________
None


Train on 783 samples, validate on 116 samples
Epoch 1/500

 50/783 [>.............................] - ETA: 1:19 - loss: 335.4792 - mean_squared_error: 333.9494 - mean_absolute_error: 15.3858
…
