…
Processed 2016 (22, 61, 49, 49, 5)
Processed 2017 (22, 61, 49, 49, 5)
[[  … > X_test (110, 61, 49, 49, 5) y_test (110,)
Processed 2010 (22, 61, 49, 49, 5)
Processed 2011 (22, 61, 49, 49, 5)
Processed 2012 (22, 61, 49, 49, 5)
(66, 61, 49, 49, 5)
> X_dev (66, 61, 49, 49, 5) y_dev (66,)
> Training Model
>> Instantiating model
>> Building model
> input_shape: (61, 49, 49, 5)
>> Fitting model
_________________________________________________________________
Layer (type)                 Output Shape              Param #   
=================================================================
main_input (InputLayer)      (None, 61, 49, 49, 5)     0         
_________________________________________________________________
pre-conv-0 (TimeDistributed) (None, 61, 49, 49, 30)    1380      
_________________________________________________________________
pre-conv-norm-0 (BatchNormal (None, 61, 49, 49, 30)    120       
_________________________________________________________________
pre-conv-1 (TimeDistributed) (None, 61, 49, 49, 30)    8130      
_________________________________________________________________
pre-conv-norm-1 (BatchNormal (None, 61, 49, 49, 30)    120       
_________________________________________________________________
pre-conv-2 (TimeDistributed) (None, 61, 49, 49, 30)    8130      
_________________________________________________________________
pre-conv-norm-2 (BatchNormal (None, 61, 49, 49, 30)    120       
_________________________________________________________________
pre-lstm-pool (TimeDistribut (None, 61, 25, 25, 30)    0         
_________________________________________________________________
lstm-0 (ConvLSTM2D)          (None, 61, 25, 25, 30)    64920     
_________________________________________________________________
lstm-0-norm (BatchNormalizat (None, 61, 25, 25, 30)    120       
_________________________________________________________________
lstm-1 (ConvLSTM2D)          (None, 61, 25, 25, 30)    64920     
_________________________________________________________________
lstm-1-norm (BatchNormalizat (None, 61, 25, 25, 30)    120       
_________________________________________________________________
lstm-2 (ConvLSTM2D)          (None, 25, 25, 30)        64920     
_________________________________________________________________
lstm-2-norm (BatchNormalizat (None, 25, 25, 30)        120       
_________________________________________________________________
lstm-flatten (Flatten)       (None, 18750)             0         
_________________________________________________________________
dense-0 (Dense)              (None, 1024)              19201024  
_________________________________________________________________
dense-norm-0 (BatchNormaliza (None, 1024)              4096      
_________________________________________________________________
dense-1 (Dense)              (None, 1024)              1049600   
_________________________________________________________________
dense-norm-1 (BatchNormaliza (None, 1024)              4096      
_________________________________________________________________
dense-2 (Dense)              (None, 1024)              1049600   
_________________________________________________________________
dense-norm-2 (BatchNormaliza (None, 1024)              4096      
_________________________________________________________________
main_output (Dense)          (None, 1)                 1025      
=================================================================
Total params: 21,526,657
Trainable params: 21,520,153
Non-trainable params: 6,504
_________________________________________________________________
None


Train on 682 samples, validate on 66 samples
Epoch 1/60

  1/682 [..............................] - ETA: 24:04 - loss: 1.0000 - mean_squared_error: 1.0000 - mean_absolute_error: 1.0000
…
