…
> X_test (240, 61, 49, 49, 5) y_test (240,)
Processed 1980 (30, 61, 49, 49, 5)
Processed 1990 (30, 61, 49, 49, 5)
Processed 2000 (30, 61, 49, 49, 5)
Processed 2010 (30, 61, 49, 49, 5)
Processed 2016 (30, 61, 49, 49, 5)
(150, 61, 49, 49, 5)
> X_dev (150, 61, 49, 49, 5) y_dev (150,)
> Training Model
>> Instantiating model
>> Building model
> input_shape: (61, 49, 49, 5)
>> Fitting model
_________________________________________________________________
Layer (type)                 Output Shape              Param #   
=================================================================
main_input (InputLayer)      (None, 61, 49, 49, 5)     0         
_________________________________________________________________
pre-lstm-pool (TimeDistribut (None, 61, 25, 25, 5)     0         
_________________________________________________________________
lstm-0 (ConvLSTM2D)          (None, 61, 25, 25, 16)    12160     
_________________________________________________________________
lstm-0-norm (BatchNormalizat (None, 61, 25, 25, 16)    64        
_________________________________________________________________
lstm-1 (ConvLSTM2D)          (None, 61, 25, 25, 16)    18496     
_________________________________________________________________
lstm-1-norm (BatchNormalizat (None, 61, 25, 25, 16)    64        
_________________________________________________________________
lstm-2 (ConvLSTM2D)          (None, 25, 25, 16)        18496     
_________________________________________________________________
lstm-2-norm (BatchNormalizat (None, 25, 25, 16)        64        
_________________________________________________________________
lstm-flatten (Flatten)       (None, 10000)             0         
_________________________________________________________________
dense-0 (Dense)              (None, 1024)              10241024  
_________________________________________________________________
dense-norm-0 (BatchNormaliza (None, 1024)              4096      
_________________________________________________________________
dense-dropout-0 (Dropout)    (None, 1024)              0         
_________________________________________________________________
dense-1 (Dense)              (None, 1024)              1049600   
_________________________________________________________________
dense-norm-1 (BatchNormaliza (None, 1024)              4096      
_________________________________________________________________
dense-dropout-1 (Dropout)    (None, 1024)              0         
_________________________________________________________________
main_output (Dense)          (None, 1)                 1025      
=================================================================
Total params: 11,349,185
Trainable params: 11,344,993
Non-trainable params: 4,192
_________________________________________________________________
None


Train on 780 samples, validate on 150 samples
Epoch 1/500

 30/780 [>.............................] - ETA: 1:20 - loss: 331.6834 - mean_squared_error: 328.2984 - mean_absolute_error: 15.1464
…
