…
> X_test (240, 61, 49, 49, 5) y_test (240,)
Processed 1980 (30, 61, 49, 49, 5)
Processed 1990 (30, 61, 49, 49, 5)
Processed 2000 (30, 61, 49, 49, 5)
Processed 2010 (30, 61, 49, 49, 5)
Processed 2016 (30, 61, 49, 49, 5)
(150, 61, 49, 49, 5)
> X_dev (150, 61, 49, 49, 5) y_dev (150,)
> Training Model
>> Instantiating model
>> Building model
> input_shape: (61, 49, 49, 5)
>> Fitting model
_________________________________________________________________
Layer (type)                 Output Shape              Param #   
=================================================================
main_input (InputLayer)      (None, 61, 49, 49, 5)     0         
_________________________________________________________________
lstm-0 (ConvLSTM2D)          (None, 61, 49, 49, 16)    12160     
_________________________________________________________________
lstm-0-norm (BatchNormalizat (None, 61, 49, 49, 16)    64        
_________________________________________________________________
lstm-1 (ConvLSTM2D)          (None, 61, 49, 49, 16)    18496     
_________________________________________________________________
lstm-1-norm (BatchNormalizat (None, 61, 49, 49, 16)    64        
_________________________________________________________________
lstm-2 (ConvLSTM2D)          (None, 49, 49, 16)        18496     
_________________________________________________________________
lstm-2-norm (BatchNormalizat (None, 49, 49, 16)        64        
_________________________________________________________________
lstm-flatten (Flatten)       (None, 38416)             0         
_________________________________________________________________
dense-0 (Dense)              (None, 1024)              39339008  
_________________________________________________________________
dense-norm-0 (BatchNormaliza (None, 1024)              4096      
_________________________________________________________________
dense-dropout-0 (Dropout)    (None, 1024)              0         
_________________________________________________________________
dense-1 (Dense)              (None, 1024)              1049600   
_________________________________________________________________
dense-norm-1 (BatchNormaliza (None, 1024)              4096      
_________________________________________________________________
dense-dropout-1 (Dropout)    (None, 1024)              0         
_________________________________________________________________
main_output (Dense)          (None, 1)                 1025      
=================================================================
Total params: 40,447,169
Trainable params: 40,442,977
Non-trainable params: 4,192
_________________________________________________________________
None


Train on 780 samples, validate on 150 samples
Epoch 1/500
> Loading Dataset
> Processing: 1979 1980 1981 1982 1983 1984 1985 1986 1987 1988 1989 1990 1991 1992 1993 1994 19
…
> X_test (240, 61, 49, 49, 3) y_test (240,)
Processed 1980 (30, 61, 49, 49, 3)
Processed 1990 (30, 61, 49, 49, 3)
Processed 2000 (30, 61, 49, 49, 3)
Processed 2010 (30, 61, 49, 49, 3)
Processed 2016 (30, 61, 49, 49, 3)
(150, 61, 49, 49, 3)
> X_dev (150, 61, 49, 49, 3) y_dev (150,)
> Training Model
>> Instantiating model
>> Building model
> input_shape: (61, 49, 49, 3)
>> Fitting model
_________________________________________________________________
Layer (type)                 Output Shape              Param #   
=================================================================
main_input (InputLayer)      (None, 61, 49, 49, 3)     0         
_________________________________________________________________
pre-lstm-pool (TimeDistribut (None, 61, 25, 25, 3)     0         
_________________________________________________________________
lstm-0 (ConvLSTM2D)          (None, 61, 25, 25, 16)    11008     
_________________________________________________________________
lstm-0-norm (BatchNormalizat (None, 61, 25, 25, 16)    64        
_________________________________________________________________
lstm-1 (ConvLSTM2D)          (None, 61, 25, 25, 16)    18496     
_________________________________________________________________
lstm-1-norm (BatchNormalizat (None, 61, 25, 25, 16)    64        
_________________________________________________________________
lstm-2 (ConvLSTM2D)          (None, 25, 25, 16)        18496     
_________________________________________________________________
lstm-2-norm (BatchNormalizat (None, 25, 25, 16)        64        
_________________________________________________________________
lstm-flatten (Flatten)       (None, 10000)             0         
_________________________________________________________________
dense-0 (Dense)              (None, 1024)              10241024  
_________________________________________________________________
dense-norm-0 (BatchNormaliza (None, 1024)              4096      
_________________________________________________________________
dense-dropout-0 (Dropout)    (None, 1024)              0         
_________________________________________________________________
dense-1 (Dense)              (None, 1024)              1049600   
_________________________________________________________________
dense-norm-1 (BatchNormaliza (None, 1024)              4096      
_________________________________________________________________
dense-dropout-1 (Dropout)    (None, 1024)              0         
_________________________________________________________________
main_output (Dense)          (None, 1)                 1025      
=================================================================
Total params: 11,348,033
Trainable params: 11,343,841
Non-trainable params: 4,192
_________________________________________________________________
None


Train on 780 samples, validate on 150 samples
Epoch 1/500

 30/780 [>.............................] - ETA: 1:19 - loss: 340.1674 - mean_squared_error: 336.7861 - mean_absolute_error: 16.3482
…
