…
> X_test (240, 61, 49, 49, 3) y_test (240,)
Processed 1980 (30, 61, 49, 49, 3)
Processed 1990 (30, 61, 49, 49, 3)
Processed 2000 (30, 61, 49, 49, 3)
Processed 2010 (30, 61, 49, 49, 3)
Processed 2016 (30, 61, 49, 49, 3)
(150, 61, 49, 49, 3)
> X_dev (150, 61, 49, 49, 3) y_dev (150,)
> Training Model
>> Instantiating model
>> Building model
> input_shape: (61, 49, 49, 3)
>> Fitting model
_________________________________________________________________
Layer (type)                 Output Shape              Param #   
=================================================================
main_input (InputLayer)      (None, 61, 49, 49, 3)     0         
_________________________________________________________________
pre-conv-0 (TimeDistributed) (None, 61, 49, 49, 10)    280       
_________________________________________________________________
pre-conv-norm-0 (BatchNormal (None, 61, 49, 49, 10)    40        
_________________________________________________________________
pre-conv-1 (TimeDistributed) (None, 61, 49, 49, 10)    910       
_________________________________________________________________
pre-conv-1-dropout (TimeDist (None, 61, 49, 49, 10)    0         
_________________________________________________________________
pre-conv-norm-1 (BatchNormal (None, 61, 49, 49, 10)    40        
_________________________________________________________________
pre-lstm-pool (TimeDistribut (None, 61, 25, 25, 10)    0         
_________________________________________________________________
lstm-0 (ConvLSTM2D)          (None, 61, 25, 25, 20)    21680     
_________________________________________________________________
lstm-0-norm (BatchNormalizat (None, 61, 25, 25, 20)    80        
_________________________________________________________________
lstm-1 (ConvLSTM2D)          (None, 25, 25, 20)        28880     
_________________________________________________________________
lstm-1-norm (BatchNormalizat (None, 25, 25, 20)        80        
_________________________________________________________________
lstm-flatten (Flatten)       (None, 12500)             0         
_________________________________________________________________
dense-0 (Dense)              (None, 1024)              12801024  
_________________________________________________________________
dense-norm-0 (BatchNormaliza (None, 1024)              4096      
_________________________________________________________________
dense-dropout-0 (Dropout)    (None, 1024)              0         
_________________________________________________________________
dense-1 (Dense)              (None, 1024)              1049600   
_________________________________________________________________
dense-norm-1 (BatchNormaliza (None, 1024)              4096      
_________________________________________________________________
dense-dropout-1 (Dropout)    (None, 1024)              0         
_________________________________________________________________
main_output (Dense)          (None, 1)                 1025      
=================================================================
Total params: 13,911,831
Trainable params: 13,907,615
Non-trainable params: 4,216
_________________________________________________________________
None


Train on 780 samples, validate on 150 samples
Epoch 1/500

 60/780 [=>............................] - ETA: 1:12 - loss: 297.9803 - mean_squared_error: 296.1026 - mean_absolute_error: 14.7783
…
