…
Processed 2016 (8, 61, 49, 49, 5)
Processed 2017 (8, 61, 49, 49, 5)
[[  … > X_test (40, 61, 49, 49, 5) y_test (40,)
Processed 2010 (8, 61, 49, 49, 5)
Processed 2011 (8, 61, 49, 49, 5)
Processed 2012 (8, 61, 49, 49, 5)
(24, 61, 49, 49, 5)
> X_dev (24, 61, 49, 49, 5) y_dev (24,)
> Training Model
>> Instantiating model
>> Building model
> input_shape: (61, 49, 49, 5)
>> Fitting model
_________________________________________________________________
Layer (type)                 Output Shape              Param #   
=================================================================
main_input (InputLayer)      (None, 61, 49, 49, 5)     0         
_________________________________________________________________
pre-conv-0 (TimeDistributed) (None, 61, 49, 49, 12)    552       
_________________________________________________________________
pre-conv-0-dropout (TimeDist (None, 61, 49, 49, 12)    0         
_________________________________________________________________
pre-conv-norm-0 (BatchNormal (None, 61, 49, 49, 12)    48        
_________________________________________________________________
pre-conv-1 (TimeDistributed) (None, 61, 49, 49, 12)    1308      
_________________________________________________________________
pre-conv-1-dropout (TimeDist (None, 61, 49, 49, 12)    0         
_________________________________________________________________
pre-conv-norm-1 (BatchNormal (None, 61, 49, 49, 12)    48        
_________________________________________________________________
pre-conv-2 (TimeDistributed) (None, 61, 49, 49, 12)    1308      
_________________________________________________________________
pre-conv-2-dropout (TimeDist (None, 61, 49, 49, 12)    0         
_________________________________________________________________
pre-conv-norm-2 (BatchNormal (None, 61, 49, 49, 12)    48        
_________________________________________________________________
pre-conv-3 (TimeDistributed) (None, 61, 49, 49, 12)    1308      
_________________________________________________________________
pre-conv-3-dropout (TimeDist (None, 61, 49, 49, 12)    0         
_________________________________________________________________
pre-conv-norm-3 (BatchNormal (None, 61, 49, 49, 12)    48        
_________________________________________________________________
pre-lstm-pool (TimeDistribut (None, 61, 25, 25, 12)    0         
_________________________________________________________________
lstm-0 (ConvLSTM2D)          (None, 61, 25, 25, 16)    16192     
_________________________________________________________________
lstm-0-norm (BatchNormalizat (None, 61, 25, 25, 16)    64        
_________________________________________________________________
lstm-1 (ConvLSTM2D)          (None, 61, 25, 25, 16)    18496     
_________________________________________________________________
lstm-1-norm (BatchNormalizat (None, 61, 25, 25, 16)    64        
_________________________________________________________________
lstm-2 (ConvLSTM2D)          (None, 61, 25, 25, 16)    18496     
_________________________________________________________________
lstm-2-norm (BatchNormalizat (None, 61, 25, 25, 16)    64        
_________________________________________________________________
lstm-3 (ConvLSTM2D)          (None, 61, 25, 25, 16)    18496     
_________________________________________________________________
lstm-3-norm (BatchNormalizat (None, 61, 25, 25, 16)    64        
_________________________________________________________________
lstm-4 (ConvLSTM2D)          (None, 25, 25, 16)        18496     
_________________________________________________________________
lstm-4-norm (BatchNormalizat (None, 25, 25, 16)        64        
_________________________________________________________________
lstm-flatten (Flatten)       (None, 10000)             0         
_________________________________________________________________
dense-0 (Dense)              (None, 1024)              10241024  
_________________________________________________________________
dense-norm-0 (BatchNormaliza (None, 1024)              4096      
_________________________________________________________________
dense-dropout-0 (Dropout)    (None, 1024)              0         
_________________________________________________________________
dense-1 (Dense)              (None, 1024)              1049600   
_________________________________________________________________
dense-norm-1 (BatchNormaliza (None, 1024)              4096      
_________________________________________________________________
dense-dropout-1 (Dropout)    (None, 1024)              0         
_________________________________________________________________
dense-2 (Dense)              (None, 1024)              1049600   
_________________________________________________________________
dense-norm-2 (BatchNormaliza (None, 1024)              4096      
_________________________________________________________________
dense-dropout-2 (Dropout)    (None, 1024)              0         
_________________________________________________________________
main_output (Dense)          (None, 1)                 1025      
=================================================================
Total params: 12,448,701
Trainable params: 12,442,301
Non-trainable params: 6,400
_________________________________________________________________
None


Train on 248 samples, validate on 24 samples
Epoch 1/500

  1/248 [..............................] - ETA: 24:12 - loss: 122.9927 - mean_squared_error: 36.0000 - mean_absolute_error: 6.0000
…
