…

> Train-Test Split
[[ … > unstacked: (72, 141, 141, 2)
[[ … > X_train: (33, 72, 141, 141, 2)
[[ … > X_test: (33, 72, 141, 141, 2)
(3, 72, 141, 141, 2)
> X_dev: (3, 72, 141, 141, 2)
> Training Model
> Training config {'epochs': 50, 'patience': 0, 'dropout': 0.5, 'dropout_recurrent': 0.3, 'dropout_conv': 0.3, 'conv_pooling': [0, 0, 3, 0]}
> input_shape: (72, 141, 141, 2)
_________________________________________________________________
Layer (type)                 Output Shape              Param #   
=================================================================
conv_lst_m2d_1 (ConvLSTM2D)  (None, 72, 141, 141, 16)  56512     
_________________________________________________________________
batch_normalization_1 (Batch (None, 72, 141, 141, 16)  64        
_________________________________________________________________
dropout_1 (Dropout)          (None, 72, 141, 141, 16)  0         
_________________________________________________________________
conv_lst_m2d_2 (ConvLSTM2D)  (None, 72, 141, 141, 8)   19232     
_________________________________________________________________
batch_normalization_2 (Batch (None, 72, 141, 141, 8)   32        
_________________________________________________________________
dropout_2 (Dropout)          (None, 72, 141, 141, 8)   0         
_________________________________________________________________
conv_lst_m2d_3 (ConvLSTM2D)  (None, 141, 141, 4)       1744      
_________________________________________________________________
max_pooling2d_1 (MaxPooling2 (None, 47, 47, 4)         0         
_________________________________________________________________
batch_normalization_3 (Batch (None, 47, 47, 4)         16        
_________________________________________________________________
dropout_3 (Dropout)          (None, 47, 47, 4)         0         
_________________________________________________________________
flatten_1 (Flatten)          (None, 8836)              0         
_________________________________________________________________
batch_normalization_4 (Batch (None, 8836)              35344     
_________________________________________________________________
dense_1 (Dense)              (None, 1024)              9049088   
_________________________________________________________________
batch_normalization_5 (Batch (None, 1024)              4096      
_________________________________________________________________
dropout_4 (Dropout)          (None, 1024)              0         
_________________________________________________________________
dense_2 (Dense)              (None, 512)               524800    
_________________________________________________________________
batch_normalization_6 (Batch (None, 512)               2048      
_________________________________________________________________
dropout_5 (Dropout)          (None, 512)               0         
_________________________________________________________________
dense_3 (Dense)              (None, 256)               131328    
_________________________________________________________________
batch_normalization_7 (Batch (None, 256)               1024      
_________________________________________________________________
dropout_6 (Dropout)          (None, 256)               0         
_________________________________________________________________
dense_4 (Dense)              (None, 1)                 257       
=================================================================
Total params: 9,825,585
Trainable params: 9,804,273
Non-trainable params: 21,312
_________________________________________________________________
None


Train on 33 samples, validate on 3 samples
Epoch 1/50

 1/33 [..............................] - ETA: 15:23 - loss: 589.1039 - mean_squared_error: 529.0000 - mean_absolute_error: 23.0000
…
15/33 [============>.................] - ETA: 7:49 - loss: 59.0950 - mean_squared_error: 59.0945 - mean_absolute_error: 6.0194> Loading Dataset
> Train-Test Split
[[ … > unstacked: (72, 141, 141, 2)
[[ … > X_train: (33, 72, 141, 141, 2)
[[ … > X_test: (33, 72, 141, 141, 2)
(3, 72, 141, 141, 2)
> X_dev: (3, 72, 141, 141, 2)
> Training Model
> Training config {'epochs': 50, 'patience': 0, 'dropout': 0.5, 'dropout_recurrent': 0.3, 'dropout_conv': 0.3, 'conv_pooling': [0, 2, 2, 0]}
> input_shape: (72, 141, 141, 2)
_________________________________________________________________
Layer (type)                 Output Shape              Param #   
=================================================================
conv_lst_m2d_1 (ConvLSTM2D)  (None, 72, 141, 141, 16)  56512     
_________________________________________________________________
batch_normalization_1 (Batch (None, 72, 141, 141, 16)  64        
_________________________________________________________________
dropout_1 (Dropout)          (None, 72, 141, 141, 16)  0         
_________________________________________________________________
conv_lst_m2d_2 (ConvLSTM2D)  (None, 72, 141, 141, 8)   19232     
_________________________________________________________________
max_pooling3d_1 (MaxPooling3 (None, 72, 70, 70, 8)     0         
_________________________________________________________________
batch_normalization_2 (Batch (None, 72, 70, 70, 8)     32        
_________________________________________________________________
dropout_2 (Dropout)          (None, 72, 70, 70, 8)     0         
_________________________________________________________________
conv_lst_m2d_3 (ConvLSTM2D)  (None, 70, 70, 4)         1744      
_________________________________________________________________
max_pooling2d_1 (MaxPooling2 (None, 35, 35, 4)         0         
_________________________________________________________________
batch_normalization_3 (Batch (None, 35, 35, 4)         16        
_________________________________________________________________
dropout_3 (Dropout)          (None, 35, 35, 4)         0         
_________________________________________________________________
flatten_1 (Flatten)          (None, 4900)              0         
_________________________________________________________________
batch_normalization_4 (Batch (None, 4900)              19600     
_________________________________________________________________
dense_1 (Dense)              (None, 1024)              5018624   
_________________________________________________________________
batch_normalization_5 (Batch (None, 1024)              4096      
_________________________________________________________________
dropout_4 (Dropout)          (None, 1024)              0         
_________________________________________________________________
dense_2 (Dense)              (None, 512)               524800    
_________________________________________________________________
batch_normalization_6 (Batch (None, 512)               2048      
_________________________________________________________________
dropout_5 (Dropout)          (None, 512)               0         
_________________________________________________________________
dense_3 (Dense)              (None, 256)               131328    
_________________________________________________________________
batch_normalization_7 (Batch (None, 256)               1024      
_________________________________________________________________
dropout_6 (Dropout)          (None, 256)               0         
_________________________________________________________________
dense_4 (Dense)              (None, 1)                 257       
=================================================================
Total params: 5,779,377
Trainable params: 5,765,937
Non-trainable params: 13,440
_________________________________________________________________
None


Train on 33 samples, validate on 3 samples
Epoch 1/50

 1/33 [..............................] - ETA: 16:30 - loss: 201.3258 - mean_squared_error: 144.0000 - mean_absolute_error: 12.0000
…
[[ … > X_test: (33, 72, 141, 141, 2)
(3, 72, 141, 141, 2)
> X_dev: (3, 72, 141, 141, 2)
> Training Model
> Training config {'epochs': 50, 'patience': 0, 'dropout': 0.5, 'dropout_recurrent': 0.3, 'dropout_conv': 0.3, 'dense_kernel_regularizer': ('L2', 0.01), 'conv_kernel_regularizer': ('L2', 0.01), 'conv_recurrent_regularizer': ('L2', 0.01)}
> input_shape: (72, 141, 141, 2)
_________________________________________________________________
Layer (type)                 Output Shape              Param #   
=================================================================
conv_lst_m2d_1 (ConvLSTM2D)  (None, 72, 141, 141, 16)  56512     
_________________________________________________________________
max_pooling3d_1 (MaxPooling3 (None, 72, 70, 70, 16)    0         
_________________________________________________________________
batch_normalization_1 (Batch (None, 72, 70, 70, 16)    64        
_________________________________________________________________
dropout_1 (Dropout)          (None, 72, 70, 70, 16)    0         
_________________________________________________________________
conv_lst_m2d_2 (ConvLSTM2D)  (None, 72, 70, 70, 8)     19232     
_________________________________________________________________
max_pooling3d_2 (MaxPooling3 (None, 72, 35, 35, 8)     0         
_________________________________________________________________
batch_normalization_2 (Batch (None, 72, 35, 35, 8)     32        
_________________________________________________________________
dropout_2 (Dropout)          (None, 72, 35, 35, 8)     0         
_________________________________________________________________
conv_lst_m2d_3 (ConvLSTM2D)  (None, 35, 35, 4)         1744      
_________________________________________________________________
max_pooling2d_1 (MaxPooling2 (None, 17, 17, 4)         0         
_________________________________________________________________
batch_normalization_3 (Batch (None, 17, 17, 4)         16        
_________________________________________________________________
dropout_3 (Dropout)          (None, 17, 17, 4)         0         
_________________________________________________________________
flatten_1 (Flatten)          (None, 1156)              0         
_________________________________________________________________
batch_normalization_4 (Batch (None, 1156)              4624      
_________________________________________________________________
dense_1 (Dense)              (None, 1024)              1184768   
_________________________________________________________________
batch_normalization_5 (Batch (None, 1024)              4096      
_________________________________________________________________
dropout_4 (Dropout)          (None, 1024)              0         
_________________________________________________________________
dense_2 (Dense)              (None, 512)               524800    
_________________________________________________________________
batch_normalization_6 (Batch (None, 512)               2048      
_________________________________________________________________
dropout_5 (Dropout)          (None, 512)               0         
_________________________________________________________________
dense_3 (Dense)              (None, 256)               131328    
_________________________________________________________________
batch_normalization_7 (Batch (None, 256)               1024      
_________________________________________________________________
dropout_6 (Dropout)          (None, 256)               0         
_________________________________________________________________
dense_4 (Dense)              (None, 1)                 257       
=================================================================
Total params: 1,930,545
Trainable params: 1,924,593
Non-trainable params: 5,952
_________________________________________________________________
None


Train on 33 samples, validate on 3 samples
Epoch 1/50

 1/33 [..............................] - ETA: 13:53 - loss: 647.5674 - mean_squared_error: 625.0000 - mean_absolute_error: 25.0000
…
{'epochs': 50, 'patience': 0, 'dropout': 0.5, 'dropout_recurrent': 0.3, 'dropout_conv': 0.3, 'dense_kernel_regularizer': ('L2', 0.01), 'conv_kernel_regularizer': ('L2', 0.01), 'conv_recurrent_regularizer': ('L2', 0.01)}
> Loading Dataset
> Train-Test Split
[[ … > unstacked: (72, 141, 141, 2)
[[ … > X_train: (33, 72, 141, 141, 2)
[[ … > X_test: (33, 72, 141, 141, 2)
(3, 72, 141, 141, 2)
> X_dev: (3, 72, 141, 141, 2)
> Training Model
> Training config {'epochs': 50, 'patience': 0, 'conv_filters': [32, 16, 8], 'dense_nodes': [1024, 512, 512, 256]}
> input_shape: (72, 141, 141, 2)
_________________________________________________________________
Layer (type)                 Output Shape              Param #   
=================================================================
conv_lst_m2d_1 (ConvLSTM2D)  (None, 72, 141, 141, 32)  213376    
_________________________________________________________________
max_pooling3d_1 (MaxPooling3 (None, 72, 70, 70, 32)    0         
_________________________________________________________________
batch_normalization_1 (Batch (None, 72, 70, 70, 32)    128       
_________________________________________________________________
dropout_1 (Dropout)          (None, 72, 70, 70, 32)    0         
_________________________________________________________________
conv_lst_m2d_2 (ConvLSTM2D)  (None, 72, 70, 70, 16)    76864     
_________________________________________________________________
max_pooling3d_2 (MaxPooling3 (None, 72, 35, 35, 16)    0         
_________________________________________________________________
batch_normalization_2 (Batch (None, 72, 35, 35, 16)    64        
_________________________________________________________________
dropout_2 (Dropout)          (None, 72, 35, 35, 16)    0         
_________________________________________________________________
conv_lst_m2d_3 (ConvLSTM2D)  (None, 35, 35, 8)         6944      
_________________________________________________________________
max_pooling2d_1 (MaxPooling2 (None, 17, 17, 8)         0         
_________________________________________________________________
batch_normalization_3 (Batch (None, 17, 17, 8)         32        
_________________________________________________________________
dropout_3 (Dropout)          (None, 17, 17, 8)         0         
_________________________________________________________________
flatten_1 (Flatten)          (None, 2312)              0         
_________________________________________________________________
batch_normalization_4 (Batch (None, 2312)              9248      
_________________________________________________________________
dense_1 (Dense)              (None, 1024)              2368512   
_________________________________________________________________
batch_normalization_5 (Batch (None, 1024)              4096      
_________________________________________________________________
dropout_4 (Dropout)          (None, 1024)              0         
_________________________________________________________________
dense_2 (Dense)              (None, 512)               524800    
_________________________________________________________________
batch_normalization_6 (Batch (None, 512)               2048      
_________________________________________________________________
dropout_5 (Dropout)          (None, 512)               0         
_________________________________________________________________
dense_3 (Dense)              (None, 512)               262656    
_________________________________________________________________
batch_normalization_7 (Batch (None, 512)               2048      
_________________________________________________________________
dropout_6 (Dropout)          (None, 512)               0         
_________________________________________________________________
dense_4 (Dense)              (None, 256)               131328    
_________________________________________________________________
batch_normalization_8 (Batch (None, 256)               1024      
_________________________________________________________________
dropout_7 (Dropout)          (None, 256)               0         
_________________________________________________________________
dense_5 (Dense)              (None, 1)                 257       
=================================================================
Total params: 3,603,425
Trainable params: 3,594,081
Non-trainable params: 9,344
_________________________________________________________________
None


Train on 33 samples, validate on 3 samples
Epoch 1/50

 1/33 [..............................] - ETA: 23:29 - loss: 260.9309 - mean_squared_error: 196.0000 - mean_absolute_error: 14.0000
…
