> Loading Dataset
> Train-Test Split
[[ … > unstacked: (72, 141, 141, 2)
[[ … > X_train: (33, 72, 141, 141, 2)
[[ … > X_test: (5, 72, 141, 141, 2)
(2, 72, 141, 141, 2)
> X_dev: (2, 72, 141, 141, 2)
> Training Model
> Training config {'epochs': 50, 'patience': 0, 'lr_plateau': (0.1, 10, 0.0001)}
> input_shape: (72, 141, 141, 2)
_________________________________________________________________
Layer (type)                 Output Shape              Param #   
=================================================================
conv_lst_m2d_1 (ConvLSTM2D)  (None, 72, 141, 141, 16)  56512     
_________________________________________________________________
max_pooling3d_1 (MaxPooling3 (None, 72, 70, 70, 16)    0         
_________________________________________________________________
batch_normalization_1 (Batch (None, 72, 70, 70, 16)    64        
_________________________________________________________________
dropout_1 (Dropout)          (None, 72, 70, 70, 16)    0         
_________________________________________________________________
conv_lst_m2d_2 (ConvLSTM2D)  (None, 72, 70, 70, 8)     19232     
_________________________________________________________________
max_pooling3d_2 (MaxPooling3 (None, 72, 35, 35, 8)     0         
_________________________________________________________________
batch_normalization_2 (Batch (None, 72, 35, 35, 8)     32        
_________________________________________________________________
dropout_2 (Dropout)          (None, 72, 35, 35, 8)     0         
_________________________________________________________________
conv_lst_m2d_3 (ConvLSTM2D)  (None, 35, 35, 4)         1744      
_________________________________________________________________
max_pooling2d_1 (MaxPooling2 (None, 17, 17, 4)         0         
_________________________________________________________________
batch_normalization_3 (Batch (None, 17, 17, 4)         16        
_________________________________________________________________
dropout_3 (Dropout)          (None, 17, 17, 4)         0         
_________________________________________________________________
flatten_1 (Flatten)          (None, 1156)              0         
_________________________________________________________________
batch_normalization_4 (Batch (None, 1156)              4624      
_________________________________________________________________
dense_1 (Dense)              (None, 1024)              1184768   
_________________________________________________________________
batch_normalization_5 (Batch (None, 1024)              4096      
_________________________________________________________________
dropout_4 (Dropout)          (None, 1024)              0         
_________________________________________________________________
dense_2 (Dense)              (None, 512)               524800    
_________________________________________________________________
batch_normalization_6 (Batch (None, 512)               2048      
_________________________________________________________________
dropout_5 (Dropout)          (None, 512)               0         
_________________________________________________________________
dense_3 (Dense)              (None, 256)               131328    
_________________________________________________________________
batch_normalization_7 (Batch (None, 256)               1024      
_________________________________________________________________
dropout_6 (Dropout)          (None, 256)               0         
_________________________________________________________________
dense_4 (Dense)              (None, 1)                 257       
=================================================================
Total params: 1,930,545
Trainable params: 1,924,593
Non-trainable params: 5,952
_________________________________________________________________
None


Train on 33 samples, validate on 2 samples
Epoch 1/50

 1/33 [..............................] - ETA: 13:39 - loss: 445.1337 - mean_squared_error: 400.0000 - mean_absolute_error: 20.0000
…
